data/logs/A2C CartePole Example/models/linear-a2c-iter1000.pt (torch, 5567 bytes, 7 tensors)

linear.0.weight f4 [64, 4]
0	0xbf0108ac	-0.5040386
1	0xbf0261be	-0.5093039
2	0xbf75b944	-0.9598582
3	0xbc2e9ed7	-0.010657988
4	0xbeaf5f34	-0.34252322
5	0xbd53718b	-0.051621955
6	0xbef2e8a8	-0.47443128
7	0xbea14163	-0.314952
8	0xbf07e5f9	-0.53085285
9	0xbf8514ae	-1.0396936
10	0xbdaa6a25	-0.08321027
11	0x3f4b8ff8	0.79516554
12	0xbf1fb4bd	-0.6238516
13	0xbebb9689	-0.36638287
14	0x3f16a416	0.58844125
15	0x3d09d0fd	0.033646572
16	0xbe1f780e	-0.15573141
17	0x3d700067	0.058594134
18	0x3c8b7f55	0.01702849
19	0x3f047f60	0.5175686
20	0x3ed49923	0.41523084
21	0xbe08abb6	-0.13346753
22	0xbf159d13	-0.584428
23	0xbefbe2d0	-0.49196482
24	0xbda186e8	-0.078870595
25	0xbf4fa3c7	-0.8110928
26	0x3d033406	0.032032035
27	0x3f19cf80	0.60082245
28	0xbed6310e	-0.418343
29	0xbf662c84	-0.89911675
30	0xbf71199e	-0.94179714
31	0x3e4455e5	0.19173391
32	0x3ea9bb11	0.33150533
33	0xbe9c8a7d	-0.30574408
34	0xbf3c51ed	-0.7356251
35	0x3f15ebac	0.5856273
36	0x3ceff049	0.029289382
37	0xbf107652	-0.5643054
38	0xbeed635a	-0.46364862
39	0xbec746a1	-0.38921073
40	0xbf481cda	-0.78169024
41	0xbe8b3370	-0.2718768
42	0x3f285985	0.65761596
43	0x3d4a0f33	0.0493309
44	0xbe805965	-0.25068203
45	0xbd9e1cf9	-0.0772037
46	0xbe2b6e8f	-0.16741394
47	0x3eda565a	0.42644006
48	0x3e42ae13	0.19011717
49	0xbf10cca4	-0.56562257
50	0x3d00795c	0.031365737
51	0x3f3b5c90	0.73188114
52	0xbeb5cc4d	-0.35507432
53	0xbf5a7840	-0.85339737
54	0x3dd7b0e1	0.10531784
55	0x3f94528d	1.1587692
56	0xbe8cf822	-0.2753306
57	0xbe9cf973	-0.30659065
58	0x3df50443	0.119637035
59	0xbe9ecfb0	-0.31017828
60	0xbe2ad420	-0.16682482
61	0xbf017128	-0.5056329
62	0x3d6a3a37	0.057184424
63	0xbe88c3ae	-0.26711792
64	0xbe97e31e	-0.29665464
65	0x3e80d7c3	0.25164613
66	0xbf2e1050	-0.6799364
67	0xbd25ebff	-0.040508267
68	0x3dcad329	0.09903557
69	0x3ea1cc3f	0.3160114
70	0xbf113835	-0.5672639
71	0x3e94b2b2	0.29042584
72	0x3dfe1dc0	0.12408018
73	0xbe38ee19	-0.18059577
74	0x3e526d02	0.20549396
75	0xbe31f5bb	-0.17378895
76	0x3dbead8a	0.09310444
77	0x3eefa333	0.468042
78	0x3ecb2d54	0.3968302
79	0xbf86b072	-1.0522597
80	0xbedf43e2	-0.43606478
81	0xbf0d9a19	-0.5531326
82	0xbe0b6105	-0.13611229
83	0x3f92048d	1.1407639
84	0x3dab124c	0.08353099
85	0x3d98c6bd	0.07459781
86	0xbf25583f	-0.6458778
87	0x3e0b2540	0.13588428
88	0xbcef0b7b	-0.029180279
89	0xbd9fa362	-0.07794835
90	0xbe9dcf59	-0.30822256
91	0xbf0b29f9	-0.5436092
92	0xbec6b619	-0.38810804
93	0xbf1b3a0b	-0.6063544
94	0xbed03b79	-0.40670374
95	0x3f275b18	0.65373373
96	0xbe06da73	-0.1316927
97	0xbf3ba29e	-0.7329501
98	0xbf963cf0	-1.1737347
99	0xbe6e6b6d	-0.23283167
100	0x3e5a840b	0.21339433
101	0x3e15818f	0.14600204
102	0x3e3f2cab	0.18669383
103	0xbd65b72d	-0.056082893
104	0xbd9fcee2	-0.07803132
105	0x3eec9255	0.46205392
106	0x3c8261aa	0.01591571
107	0xbe6c2463	-0.23060755
108	0x3dfa40ce	0.12219392
109	0xbec455d9	-0.38346747
110	0xbf30e445	-0.6909831
111	0xbf060ad7	-0.5236029
112	0xbe0d80b9	-0.13818635
113	0xbcaaab9d	-0.020833785
114	0xbe33f47c	-0.17573732
115	0xbebe9b46	-0.3722784
116	0x3e58d2d8	0.2117418
117	0xbf143843	-0.5789835
118	0x3d171a20	0.03689015
119	0x3ecd8b43	0.4014531
120	0x3e9393ed	0.28823796
121	0xbf03acb3	-0.51435393
122	0xbf21420e	-0.62991416
123	0x3e869ba8	0.2629063
124	0xbc98cf1c	-0.018653445
125	0x3e9514ee	0.2911753
126	0xbf1ee248	-0.6206403
127	0xbe263d9f	-0.16234444
128	0x3e443c30	0.19163585
129	0x3f4682e1	0.77543455
130	0x3e820948	0.25397706
131	0xbface9fe	-1.3508909
132	0x3dae1bad	0.085013725
133	0x3dbb671d	0.09150527
134	0xbc227987	-0.00991667
135	0xbf21481d	-0.6300066
136	0xbc82e80b	-0.015979787
137	0x3e19acea	0.15007368
138	0x3ed12a9b	0.40852818
139	0xbf35cd68	-0.7101655
140	0xbe183ed2	-0.14867714
141	0x3e281f2f	0.16418146
142	0xbf2f6648	-0.68515444
143	0x3e8382f9	0.25685862
144	0xbf1c7fcc	-0.611325
145	0x3e3f925e	0.18708178
146	0xbe3c522e	-0.18390724
147	0x3ddd3f7f	0.108031265
148	0x3dddeb82	0.10835935
149	0x3e402e16	0.1876758
150	0xbe47ae04	-0.19499975
151	0x3f4724a6	0.77790296
152	0xbf581e62	-0.8442136
153	0xbea1f004	-0.3162843
154	0x3e964e51	0.29356626
155	0x3d80dc2e	0.06291996
156	0x3efca384	0.49343503
157	0xbf6e5338	-0.9309573
158	0xbee5db88	-0.44894052
159	0x3f4d6295	0.8022855
160	0xbc2e5f5b	-0.010642852
161	0xbe2ca8ad	-0.1686122
162	0xbed2d399	-0.4117706
163	0xbc2f7e9b	-0.010711337
164	0x3cf02143	0.029312735
165	0xbea63aa9	-0.3246663
166	0xbdf9fa57	-0.12205952
167	0xbe12c719	-0.14333762
168	0x3f5c2470	0.859931
169	0x3e8b3ab0	0.27193213
170	0xbe14efb3	-0.14544563
171	0xbe502f28	-0.20330489
172	0x3da50795	0.08058087
173	0xbbf282d8	-0.0074008517
174	0xbeb00cae	-0.34384674
175	0xbf71a4f7	-0.9439234
176	0x3f62244d	0.8833664
177	0x3ddb30d1	0.1070267
178	0x3d780cc1	0.060559038
179	0x3d922ea1	0.071378
180	0xbf1b12d6	-0.60575616
181	0xbf17b473	-0.5925972
182	0x3f4b0949	0.79311043
183	0xbdecea92	-0.11568178
184	0x3edd63c3	0.43240175
185	0xbe99543e	-0.29947084
186	0xbe2da273	-0.169565
187	0xbf087fe8	-0.5332017
188	0x3ecb862e	0.39750808
189	0xbdf27da8	-0.11840373
190	0x3e807006	0.25085467
191	0xbe9bedc9	-0.30454853
192	0x3eb0453e	0.34427828
193	0xbde9ba74	-0.11412516
194	0xbecbed09	-0.3982928
195	0x3f905f28	1.1279039
196	0xbbb52c80	-0.0055289865
197	0xbe7adcb2	-0.24498251
198	0xbf065707	-0.52476543
199	0xbf24c3c4	-0.64361215
200	0xbe9bf242	-0.30458266
201	0xbf34b1dd	-0.705839
202	0xbdbd4f38	-0.092436254
203	0xbe51301f	-0.20428513
204	0xbdbacf11	-0.09121526
205	0x3e85ded8	0.2614658
206	0xbf246c62	-0.6422788
207	0xbf27cf3e	-0.655506
208	0x3ea3fa02	0.32026678
209	0xbe9c387f	-0.30511853
210	0x3e3eb00d	0.18621846
211	0xbe4fb9fc	-0.20285791
212	0x3e9554b9	0.291662
213	0xbe81c8ca	-0.25348502
214	0xbf2ca362	-0.674368
215	0xbf539b92	-0.82659256
216	0xbdb19518	-0.086710155
217	0x3e768395	0.24073632
218	0xbf181dc2	-0.59420407
219	0xbf222efa	-0.6335293
220	0xbe532868	-0.20620883
221	0xbf485029	-0.78247315
222	0xbeeaf8c5	-0.4589292
223	0xbf2dd3f5	-0.67901546
224	0xbea0cf06	-0.31407946
225	0xbefa9a1b	-0.48945698
226	0xbe509d38	-0.20372474
227	0xbe299454	-0.16560489
228	0xbeab1758	-0.33416247
229	0x3f106c77	0.56415504
230	0xbef61224	-0.48060715
231	0xbf8b7d37	-1.0897588
232	0x3eccabe1	0.39974883
233	0xbe687e19	-0.22704352
234	0x3e285666	0.16439208
235	0x3dd9cb73	0.10634508
236	0x3ef5613a	0.4792574
237	0xbe9dadb8	-0.307966
238	0x3e221452	0.15828064
239	0xbdf20b66	-0.1181858
240	0xbde83ee6	-0.11340122
241	0xbcc81f83	-0.024429088
242	0xbef42a7a	-0.47688657
243	0xbf156998	-0.5836425
244	0x3e94e01c	0.29077232
245	0x3f005b60	0.5013943
246	0x3f189bfe	0.59613025
247	0xbc6c995f	-0.014440863
248	0x3e885313	0.2662588
249	0x3f0765b3	0.52889556
250	0xbe6f8463	-0.23390345
251	0xbf235b8e	-0.63811576
252	0x3dce618d	0.100772
253	0x3e9683e0	0.29397488
254	0xbdfc5139	-0.123201795
255	0xbeff602b	-0.49878058

linear.0.bias f4 [64]
0	0x3f663975	0.8993142
1	0x3fa86eba	1.3158791
2	0x3f796bc4	0.9743006
3	0xbe8006cf	-0.25005195
4	0x3fa800b9	1.312522
5	0x3fd04ff4	1.62744
6	0x3fad2fd3	1.353022
7	0x3f2cf66c	0.6756351
8	0x3f80c822	1.0061076
9	0x3fba9169	1.4575626
10	0xbe6d2596	-0.23158869
11	0x3f97b3cf	1.1851748
12	0x3f906dc3	1.1283497
13	0x3f8912f8	1.0708914
14	0x3facb583	1.3492893
15	0x3fb8acde	1.4427755
16	0x3fc9cc46	1.5765464
17	0x3fbc9c24	1.473515
18	0x3fa1483b	1.2600168
19	0x3f8eca47	1.115548
20	0x3f7e5c29	0.99359375
21	0x3fb47159	1.4097091
22	0x3fbd9ddf	1.4813803
23	0x3f98f7f5	1.195067
24	0x3f6c3996	0.9227537
25	0x3f97a54f	1.1847323
26	0x3f9861f3	1.1904892
27	0x3fc5d459	1.5455428
28	0x3faee842	1.366463
29	0x3fa1a24a	1.2627652
30	0x3fb9b2d3	1.4507698
31	0x3fd19ee7	1.6376618
32	0x3f6fb8aa	0.9364115
33	0x3f824c7f	1.0179595
34	0x3f8ec663	1.1154293
35	0x3fd88f00	1.691864
36	0xbd91f54d	-0.071268655
37	0x3f8a4836	1.0803287
38	0xbe936ce3	-0.2879401
39	0x3f827455	1.0191752
40	0x3fcf936c	1.6216865
41	0x3fbce95a	1.4758713
42	0xbb3fe353	-0.0029279783
43	0x3f87d5dc	1.061214
44	0xbba9ef7b	-0.005186019
45	0xbeb42bc8	-0.35189652
46	0x3f9d6fd4	1.2299752
47	0x3fa1fb0b	1.2654737
48	0x3f760111	0.9609538
49	0x3faec8c1	1.3655015
50	0xbebcb17e	-0.36854166
51	0x3fcdbde4	1.6073575
52	0x3f9efe70	1.2421398
53	0x3f885026	1.0649459
54	0x3f9fe3a3	1.2491344
55	0x3f9f7e7c	1.2460475
56	0xbe8376f7	-0.256767
57	0x3f6f5064	0.9348204
58	0x3fd5452f	1.6661738
59	0x3fbbb827	1.4665574
60	0x3fc728df	1.5559348
61	0x3f8cbfd8	1.0996046
62	0x3f6be340	0.9214363
63	0x3f9c0783	1.2189792

policy.weight f4 [2, 64]
0	0x3e52ffbe	0.2060537
1	0x3e2c9be1	0.16856338
2	0xbc8b2d71	-0.016989442
3	0xbc112dc2	-0.008861007
4	0xbe06ab6b	-0.13151328
5	0x3daea4ab	0.08527502
6	0xbe64e946	-0.22354612
7	0x3e2129a3	0.1573854
8	0xba95e6a7	-0.0011436538
9	0x3e048ab9	0.12943543
10	0xbe614777	-0.21999918
11	0xbe4e07e2	-0.20120195
12	0xbdb2b529	-0.0872596
13	0xbd8a5f68	-0.067564785
14	0x3dfd1f60	0.123595
15	0xbd32b050	-0.043625176
16	0xbd524c8b	-0.05134253
17	0xbe670c2c	-0.22563237
18	0xbdd0786b	-0.10179218
19	0x3bcaa805	0.0061845803
20	0xbdbeec87	-0.09322458
21	0xbdbf8e96	-0.09353368
22	0x3db3f848	0.0878759
23	0xbe3b8234	-0.18311387
24	0x3e646a03	0.22306065
25	0xbda99bf9	-0.082817025
26	0xbe04f115	-0.1298259
27	0x3df0a379	0.1174993
28	0xbd943c47	-0.072380595
29	0xbdfb776a	-0.12278636
30	0x3cd8eebe	0.026481029
31	0x3d879c4b	0.066216074
32	0x3a7bd7a2	0.0009607022
33	0x3d26a70b	0.04068665
34	0x3da45cd5	0.08025519
35	0xbe087c1f	-0.13328598
36	0x3d1d0e02	0.038343437
37	0xbe3bcb90	-0.18339372
38	0xbe1cce0b	-0.15312974
39	0x3dd4fefb	0.10400196
40	0xbd07275f	-0.03299653
41	0x3d57f5f4	0.052724794
42	0xbc220f29	-0.00989131
43	0x3e11dd1c	0.14244503
44	0xbd525fe9	-0.051361
45	0xbdda035e	-0.106451735
46	0x3e54cd10	0.2078135
47	0xbbee70a8	-0.0072766133
48	0xbe3c2259	-0.18372478
49	0x3e619dd7	0.22032867
50	0x3e1e8132	0.15478972
51	0x3d405223	0.04695333
52	0xbc7adf50	-0.015312031
53	0x3e91c4b7	0.28470394
54	0x3e12d9ab	0.14340846
55	0x3e5dd496	0.21663126
56	0x3e404ca1	0.18779232
57	0xbc903d18	-0.017607257
58	0xbce1fc93	-0.027586257
59	0xbe0eda36	-0.13950428
60	0x3daeeefb	0.08541676
61	0xbe870957	-0.26374313
62	0xbd2156da	-0.03938947
63	0x3dae967d	0.08524797
64	0xbdb9c312	-0.0907041
65	0xbe287035	-0.16449054
66	0xbda9bf85	-0.082884826
67	0x3dcb27e0	0.09919715
68	0x3eb24c96	0.34824055
69	0xbe045a00	-0.12924957
70	0x3d82abbb	0.06380411
71	0xbd098456	-0.03357347
72	0x3d12bd08	0.035824805
73	0xbe436c66	-0.1908432
74	0x3e18ae00	0.14910126
75	0x3e9623ce	0.29324192
76	0x3e84703d	0.2586688
77	0x3de9fe6c	0.1142548
78	0x3dadc349	0.08484513
79	0xbd823e87	-0.063595824
80	0x3d5d5960	0.054040313
81	0x3dbacb95	0.091208614
82	0x3cb694a0	0.022287667
83	0xbe0ff10d	-0.14056797
84	0x3ea4308c	0.32068288
85	0x3d43c6c2	0.047796972
86	0xbe15c805	-0.14627083
87	0x3d415757	0.047202434
88	0xbe391010	-0.18072534
89	0x3e63d0e7	0.22247659
90	0x3cdfd091	0.027321132
91	0xbe5aae40	-0.21355534
92	0xbd6f5687	-0.05843213
93	0x3e10009f	0.14062737
94	0x3e0c20ae	0.13684341
95	0xbda976a3	-0.08274581
96	0xbb824a04	-0.0039761085
97	0x3d988351	0.074469216
98	0x3dadc384	0.08484557
99	0x3da57252	0.080784455
100	0xbbe16d2a	-0.0068794684
101	0x3ed38877	0.41315052
102	0xbce9dc7e	-0.028547522
103	0xbdf6d39c	-0.1205208
104	0x3dedae46	0.11605506
105	0x3d0b101f	0.03395092
106	0x3bfe521e	0.007761254
107	0xbdfbbdf4	-0.1229209
108	0x3d0b0a93	0.03394563
109	0x3d5dd0cd	0.054154206
110	0xbe1bf6fe	-0.15230939
111	0xbd1ba493	-0.037998747
112	0x3e1ef0ad	0.15521498
113	0xbea0f3e9	-0.3143609
114	0xbe9e2f8d	-0.30895653
115	0xbe3a275e	-0.1817908
116	0x3d7a3156	0.061082207
117	0xbed0d43f	-0.4078693
118	0xbe5b64f7	-0.21425234
119	0xbe27e271	-0.16394974
120	0xbe1508cb	-0.14554136
121	0xbc273713	-0.010206002
122	0x3e04eb04	0.12980276
123	0xbd03c8df	-0.032173987
124	0xbc2c5ef8	-0.010520689
125	0x3e8d4b2d	0.27596417
126	0x3cda4b48	0.026647225
127	0x3b31fa98	0.0027157422

policy.bias f4 [2]
0	0xbe147479	-0.14497556
1	0x3daba8d2	0.08381809

value.weight f4 [1, 64]
0	0x3f80ab6e	1.0052316
1	0x3f94ddfa	1.1630242
2	0x3f7a1dd6	0.97701776
3	0xbf3806e8	-0.7188554
4	0x3f9cb7e7	1.2243623
5	0x3f9234fc	1.142242
6	0x3f8f1f13	1.1181358
7	0x3f326956	0.6969198
8	0x3f896777	1.07347
9	0x3f89718d	1.0737778
10	0xbf38f99b	-0.7225587
11	0x3fa466a3	1.2843822
12	0x3fa9f9f5	1.3279406
13	0x3f984f75	1.1899248
14	0x3f9b98ed	1.2156044
15	0x3f85e924	1.0461774
16	0x3f897f0c	1.0741897
17	0x3f87d807	1.0612801
18	0x3f98d033	1.1938537
19	0x3f94757c	1.1598353
20	0x3f9f6f7f	1.2455901
21	0x3f82b2cf	1.0210818
22	0x3f7d24bf	0.98884195
23	0x3f95e200	1.1709595
24	0x3f73e045	0.95264083
25	0x3f852126	1.0400741
26	0x3f9b0d52	1.211344
27	0x3f7ed56f	0.99544424
28	0x3f84b2b0	1.0367031
29	0x3f94d0c8	1.1626215
30	0x3f884b13	1.0647911
31	0x3f8c3cc4	1.0956044
32	0x3f7f0c75	0.9962838
33	0x3f9e236a	1.2354558
34	0x3f989abd	1.1922222
35	0x3f86fb69	1.0545474
36	0xbf2f85d1	-0.6856356
37	0x3fa78c2f	1.3089656
38	0xbf4d1973	-0.8011696
39	0x3f8fd819	1.1237823
40	0x3f82aff5	1.0209948
41	0x3f7dab5b	0.9908959
42	0xbf15a744	-0.5845835
43	0x3faecd0e	1.3656328
44	0xbef1db1a	-0.47237474
45	0xbf436b2d	-0.7633541
46	0x3f8a96e1	1.0827295
47	0x3f81f33c	1.0152354
48	0x3f8d8121	1.1055032
49	0x3f8e42bb	1.1114115
50	0xbee006fd	-0.43755332
51	0x3f8a5056	1.0805767
52	0x3fa32226	1.2744796
53	0x3fadd5e8	1.3580904
54	0x3f8ceaa5	1.1009108
55	0x3f8ce15d	1.1006275
56	0xbf2d329f	-0.67655367
57	0x3faac3a5	1.3340956
58	0x3f8f911e	1.1216161
59	0x3f972448	1.1807947
60	0x3f91d29b	1.1392397
61	0x3f6bd68a	0.92124236
62	0x3f8487ee	1.0353982
63	0x3f800e37	1.0004338

advantages.weight f4 [2, 64]
0	0xbd53a340	-0.05166936
1	0xbde5f6c0	-0.112287045
2	0x3dc26c06	0.0949326
3	0xbc9f8e50	-0.01947704
4	0xbc6eb820	-0.014570266
5	0x39674c00	0.00022058189
6	0x3daf1986	0.0854979
7	0x3a1d2700	0.0005994886
8	0x3de729e6	0.11287288
9	0xbdf0b9e4	-0.11754206
10	0x3ca1c210	0.019745857
11	0xbd515830	-0.051109493
12	0xbd1b8d28	-0.037976414
13	0x3d211d54	0.03933461
14	0xbda21fea	-0.079162434
15	0xbdd14b90	-0.102194905
16	0xbdaf7e24	-0.08568981
17	0xbc3a1380	-0.011357188
18	0x3d8a31b4	0.06747761
19	0x3dd5dea4	0.10442856
20	0xbdcbe81a	-0.09956379
21	0x3d5122f4	0.051058725
22	0xbcd43390	-0.025903493
23	0x3cb64f98	0.02225475
24	0xbde43f14	-0.11144844
25	0xbdbd42b6	-0.0924124
26	0xbdd9f6f2	-0.10642804
27	0xbd55d640	-0.052206278
28	0x3dcceaae	0.10005699
29	0x3c983538	0.018580064
30	0xbda4c8ae	-0.08046089
31	0xbcfc2338	-0.030778512
32	0xbcf7d880	-0.030254602
33	0xbb094ec0	-0.002095148
34	0x3dededc8	0.11617619
35	0xbc93be40	-0.018035054
36	0xbc799920	-0.015234262
37	0xbcd5a468	-0.026079372
38	0xbd99a57c	-0.07502267
39	0x3d25aa54	0.04044564
40	0x3c573bd0	0.013136819
41	0xbce67f98	-0.028137013
42	0xbd99a1c4	-0.075015575
43	0xbde3fd90	-0.111323476
44	0xbd00ede8	-0.031476885
45	0x3cda2cb8	0.026632652
46	0xbd6fced8	-0.05854687
47	0x3d87d780	0.066329
48	0x3d8373d0	0.06418574
49	0x3dbe6dbc	0.09298274
50	0x3cff4738	0.03116189
51	0x3d9fcf90	0.07803261
52	0x3ce39c38	0.027784452
53	0x3d2e8cc8	0.04261473
54	0x3dad1ff2	0.08453359
55	0xbd7e0654	-0.062017754
56	0xbcf95750	-0.030437142
57	0x3c8ffc68	0.017576411
58	0x3c37a100	0.011207819
59	0xbbad7d80	-0.005294502
60	0xbc6190c0	-0.013767421
61	0xbd02f2ec	-0.03196995
62	0xbd70161c	-0.058614835
63	0x3d9146a8	0.07093555
64	0x3cef8748	0.029239312
65	0x3d2ab400	0.041675568
66	0x3d48a618	0.048986524
67	0x3db4edbe	0.08834408
68	0x3ddf253c	0.10895774
69	0xbd923e42	-0.07140781
70	0xbbf31520	-0.00741829
71	0xbd254da0	-0.040357232
72	0x3dc94048	0.09826714
73	0xbdbfffd4	-0.09374967
74	0xbd3409e8	-0.04395476
75	0x3c9bd210	0.019021064
76	0xbd8d5814	-0.06901565
77	0x3db5753c	0.08860251
78	0xbd8cce90	-0.06875336
79	0xbd1fb964	-0.03899516
80	0xbdc5a2a0	-0.09650159
81	0xbd11d320	-0.035601735
82	0x3c6f7360	0.01461491
83	0x3d6162c0	0.055025816
84	0x3ca5ad68	0.020224288
85	0x3d9cae5c	0.07650444
86	0x3d261720	0.040549397
87	0xbdd458b6	-0.10368483
88	0x3d629f04	0.05532743
89	0x3d3827d0	0.044959843
90	0x3d4522b0	0.048128784
91	0x3dfeb7dc	0.12437412
92	0x3d8dd10e	0.0692464
93	0x3d204330	0.039126575
94	0x3d242c00	0.040081024
95	0x3c2e7bb0	0.010649607
96	0xbda539e2	-0.08067681
97	0xbd8f5a78	-0.069996774
98	0x3dddefe4	0.10836771
99	0x3df158bc	0.11784503
100	0xbde7eaae	-0.113240585
101	0xbdfbca44	-0.122944385
102	0xbddeeaca	-0.10884626
103	0x3d97241a	0.07379933
104	0x3d8fb00e	0.07016002
105	0x3dfe5e1e	0.12420295
106	0xbd8b416a	-0.06799586
107	0xbd08b770	-0.033378065
108	0xbd20de74	-0.039274648
109	0xbd93b7e8	-0.07212812
110	0xbd74c880	-0.059761524
111	0xbc2f9d60	-0.0107186735
112	0xbddbd468	-0.10733873
113	0x3dd4816a	0.10376246
114	0xbdc2dff0	-0.09515369
115	0x3ddc2b1c	0.1075041
116	0x3bed8340	0.0072483122
117	0xbc023720	-0.007947713
118	0xbd6e1314	-0.058123663
119	0xbdb5ee98	-0.08883399
120	0x3d9cc90c	0.07655534
121	0x3df9d39a	0.12198563
122	0xbdc3f324	-0.0956786
123	0xbdd52202	-0.10406877
124	0x3d23061c	0.03980075
125	0x3d139254	0.03602822
126	0xbc7259f0	-0.014791951
127	0x3d6dd9d4	0.058069065

advantages.bias f4 [2]
0	0x3dc7bfee	0.097534046
1	0xbd8836a6	-0.06651048
