data/logs/A2C CartePole Example/models/linear-a2c-iter0.pt (torch, 5567 bytes, 7 tensors)

linear.0.weight f4 [64, 4]
0	0xbef25398	-0.47329402
1	0xbde8c25a	-0.113651946
2	0xbe98c3dc	-0.2983693
3	0xbdd82dbe	-0.105556
4	0xbee6113a	-0.44935018
5	0x3c918b07	0.017766489
6	0xbe34f4f9	-0.17671575
7	0xbdc6739a	-0.09690018
8	0xbedf814c	-0.43653333
9	0xbed8ab18	-0.42318034
10	0x3ee441ba	0.44581395
11	0x3bf4ce1c	0.007470859
12	0xbdd36a06	-0.10322957
13	0xbe489a3f	-0.1959009
14	0x3e34c32d	0.17652579
15	0x3e192c0f	0.14958213
16	0xbe643b0d	-0.22288151
17	0x3e7a208b	0.24426477
18	0x3e487ac3	0.1957808
19	0x3ee0115a	0.43763238
20	0x3eafd552	0.34342438
21	0xba3ba4dc	-0.000715805
22	0xbeb13a2a	-0.34614688
23	0xbed42bd0	-0.41439676
24	0xbe01dc65	-0.1268173
25	0xbec17f10	-0.37792253
26	0x3e9cf1b2	0.3065315
27	0x3e8a57ee	0.2702021
28	0xbebecf2e	-0.3726744
29	0xbed6dd2a	-0.4196561
30	0xbe2cc67b	-0.1687259
31	0xbe959024	-0.29211533
32	0x3eb7c4c6	0.35892314
33	0xbcb89619	-0.02253251
34	0xbef22048	-0.47290254
35	0x3ebabaf6	0.36470765
36	0xbd974d16	-0.0738775
37	0xbee0ee96	-0.43932027
38	0xbe4fedf7	-0.2030562
39	0xbe807996	-0.25092763
40	0xbe64e5a0	-0.2235322
41	0x3d978b18	0.07399577
42	0x3ed7397e	0.4203605
43	0xbd7b4230	-0.06134242
44	0xbe969296	-0.2940871
45	0x3e4f8b4f	0.20267986
46	0xbd270eb3	-0.040785503
47	0x3e846108	0.2585528
48	0x3e2e6eb3	0.17034416
49	0xbdb2702a	-0.087128
50	0x3e5fda8b	0.21860711
51	0x3e8e9be8	0.27853322
52	0xbeacca8c	-0.3374828
53	0xbe9315ce	-0.28727573
54	0x3ede98f0	0.43476057
55	0x3ef68c9c	0.4815415
56	0xbebacf64	-0.3648635
57	0xbe3a7ded	-0.182121
58	0x3eb8a15e	0.36060613
59	0xbe5cc885	-0.21560867
60	0xbe8d10fa	-0.27552015
61	0xbec3207e	-0.38110727
62	0x3e9a31e4	0.3011619
63	0xbe1f7a87	-0.15574084
64	0xbec5bae4	-0.3861915
65	0x3ec81118	0.39075541
66	0xbeec2f26	-0.4612972
67	0x3c8d1747	0.017223014
68	0x3b88e59b	0.0041777617
69	0x3eea6e3a	0.4578722
70	0xbec6d0ae	-0.38831085
71	0x3e99562a	0.2994855
72	0x3cc1b6c7	0.023646725
73	0xbd77e3fd	-0.06052016
74	0x3ed017ce	0.40643162
75	0xbde0ee86	-0.10982995
76	0x3e0712cf	0.13190769
77	0x3ea9598e	0.33076137
78	0x3ef2b2f4	0.47402155
79	0xbed12bde	-0.4085378
80	0xbebea53a	-0.37235433
81	0x3d816ebe	0.063199505
82	0x3dc29287	0.09500604
83	0x3ece7b1e	0.40328306
84	0xbc6b70f2	-0.01437019
85	0x3e48e219	0.196175
86	0xbed41114	-0.4141928
87	0x3e761919	0.24033011
88	0xbe00893b	-0.1255235
89	0x3d866412	0.06562056
90	0xbc7e4d72	-0.015521394
91	0xbec7c194	-0.39014876
92	0xbecaf9ba	-0.3964365
93	0xbdef4f92	-0.11685099
94	0xbdb00e12	-0.08596434
95	0x3e7875c5	0.24263676
96	0xbdbbcc36	-0.091698095
97	0xbea158e8	-0.31513143
98	0xbef2a76e	-0.47393364
99	0xbe7bde95	-0.24596627
100	0x3e916ca0	0.28403187
101	0x3e9cb066	0.3060333
102	0x3e8de6de	0.277152
103	0x3dc63b4a	0.09679277
104	0xbda3fa6a	-0.08006747
105	0x3eeb982c	0.46014535
106	0x3df2f2ee	0.118627414
107	0x3dfb5b9e	0.12273334
108	0x3c7fb78e	0.015607728
109	0xbe84cacc	-0.25935972
110	0xbed264ae	-0.41092438
111	0xbeba7f40	-0.3642521
112	0xbe6edddf	-0.23326825
113	0x3e02d1c5	0.12775333
114	0x3d816952	0.063189164
115	0xbe8dc642	-0.2769032
116	0x3e0d31c1	0.13788511
117	0xbe88b468	-0.2670014
118	0x3e7083b5	0.23487742
119	0x3e4c0d37	0.19926916
120	0x3e48ba5d	0.19602342
121	0xbeb143f8	-0.3462217
122	0xbedf3a5c	-0.43599212
123	0x3e740691	0.2383063
124	0xbdd82692	-0.10554232
125	0x3ed13830	0.4086318
126	0xbebada66	-0.3649475
127	0xbd41b403	-0.047290813
128	0x3e234670	0.15944839
129	0x3ed44b76	0.41463822
130	0x3e6d5c40	0.23179722
131	0xbedc4108	-0.43018365
132	0x3de0ec58	0.10982579
133	0x3cae6d20	0.02129227
134	0x3d9583c8	0.07300526
135	0xbdb24b80	-0.08705807
136	0xbda61077	-0.08108609
137	0x3db8cf8e	0.09023963
138	0x3ef28426	0.47366446
139	0xbe681f0f	-0.22668098
140	0xbe7231b0	-0.23651767
141	0x3e99a982	0.30012137
142	0xbef2283a	-0.47296315
143	0x3e9a0338	0.3008058
144	0xbda54d5f	-0.08071398
145	0x3e813c48	0.25241303
146	0xbee640e4	-0.44971383
147	0xbda451ae	-0.08023392
148	0x3d1097ae	0.035300903
149	0x3eec5a4c	0.4616264
150	0xbe48b6d3	-0.19600992
151	0x3ed6eb28	0.41976285
152	0xbe9e0388	-0.3086207
153	0xbd83b808	-0.064315856
154	0xbe000904	-0.12503439
155	0xbde8b0a0	-0.113618135
156	0x3ee86b38	0.453943
157	0xbef6ee9e	-0.48228925
158	0x3e0b1141	0.135808
159	0x3e952ebc	0.29137218
160	0xbdf61cc6	-0.12017207
161	0xbd453a1d	-0.048151124
162	0xbe6c0dbb	-0.23052113
163	0x3c9f1607	0.019419683
164	0xbd851086	-0.06497292
165	0xbe466777	-0.19375406
166	0x3e0c5f79	0.13708295
167	0xbc8fb3f9	-0.017541872
168	0x3ea55772	0.32293278
169	0xbe2233db	-0.15840094
170	0x3e90fa68	0.28316045
171	0x3e588e57	0.21148048
172	0x3c8e71fd	0.017388338
173	0xbe0987ab	-0.1343066
174	0xbb0da330	-0.002161216
175	0xbec6bab8	-0.3881433
176	0x3ef3e592	0.47636086
177	0xbe2fceb3	-0.17168693
178	0x3ec0871a	0.37603074
179	0x3ee6a9be	0.45051378
180	0xbd0c9e3c	-0.03433059
181	0xbe7d7959	-0.24753322
182	0x3ec7d088	0.39026284
183	0xbed2de9c	-0.41185462
184	0x3ee92eac	0.4554342
185	0xbd989ffa	-0.07452388
186	0x3dbfa5b2	0.09357776
187	0xbecc0442	-0.39846998
188	0x3efc15be	0.49235338
189	0x3e144093	0.14477758
190	0x3ef54c2e	0.47909683
191	0xbe4f12a3	-0.20221953
192	0x3ec12086	0.37720126
193	0x3e18ad1c	0.14909786
194	0xbec079dc	-0.3759297
195	0x3ea8d56c	0.32975328
196	0xbe08f74b	-0.13375585
197	0xbe39ee6f	-0.18157361
198	0xbe502f97	-0.20330654
199	0xbeb8d04c	-0.36096418
200	0x3e45e020	0.19323778
201	0xbed517a2	-0.41619593
202	0xbebef212	-0.3729406
203	0xbe802864	-0.25030816
204	0xbe4057e1	-0.18783523
205	0x3ea28bde	0.31747335
206	0xbebf0c6c	-0.37314165
207	0xbed4415e	-0.4145612
208	0x3e770b0f	0.24125312
209	0xbe2d9a29	-0.16953339
210	0x3ecfadc0	0.40562248
211	0xbe1fd7e3	-0.15609698
212	0x3e8f54ea	0.27994472
213	0xbe9d9b10	-0.30782366
214	0xbe583efd	-0.21117778
215	0xbea8ec46	-0.32992762
216	0xbe2c5dc3	-0.16832642
217	0x3e9d46e0	0.30718136
218	0xbe9ec956	-0.31012982
219	0xbe936720	-0.28789616
220	0xbe5c49af	-0.21512483
221	0xbef3d536	-0.47623605
222	0x3d0eadd3	0.03483374
223	0xbec58910	-0.38581133
224	0x3defa378	0.11701101
225	0xbe6c0950	-0.23050427
226	0xbee26578	-0.4421804
227	0xbe23f480	-0.16011238
228	0xbed8dfa8	-0.42358136
229	0x3e7e3831	0.24826123
230	0xbebc07aa	-0.36724597
231	0xbe82ec14	-0.25570738
232	0x3ea31a3a	0.31855947
233	0xbdc3580a	-0.095382765
234	0x3ec4f472	0.38467747
235	0x3e248bb3	0.16068916
236	0x3ecf0720	0.40435123
237	0xbe304775	-0.17214759
238	0x3ec0d7fe	0.3766479
239	0xbd94bd2a	-0.07262643
240	0xbe4e86e9	-0.20168652
241	0x3d99fb4e	0.07518636
242	0xbe7274bd	-0.23677345
243	0xbee5b84e	-0.44867176
244	0x3eb2b4d0	0.34903574
245	0x3ee84c97	0.45370933
246	0x3ee71636	0.45134133
247	0x3e9fd2cc	0.31215513
248	0x3e8d91a2	0.27650172
249	0x3eab788e	0.33490413
250	0xbe94b3f6	-0.2904355
251	0x3daf8d68	0.08571893
252	0x3e6532d9	0.22382678
253	0x3eed3b80	0.46334457
254	0x3d0796a3	0.033102643
255	0xbe47861f	-0.19484757

linear.0.bias f4 [64]
0	0xbe891156	-0.2677104
1	0x3dbaf99e	0.09129642
2	0xbebe7cc6	-0.3720457
3	0xbe5c44dd	-0.21510644
4	0x3e0fd561	0.14046241
5	0x3eee153c	0.46500576
6	0x3d302583	0.043004524
7	0xbef88ca8	-0.48544812
8	0xbd9d7202	-0.07687761
9	0x3e90ef1e	0.28307432
10	0xbe9a8b30	-0.30184317
11	0xbd101b3d	-0.035182226
12	0xbe162f6f	-0.14666532
13	0xbe67a85f	-0.22622822
14	0x3e325f05	0.1741906
15	0x3ea2513a	0.31702596
16	0x3ead8082	0.33887106
17	0x3e89c3ee	0.26907295
18	0x3d5af3ad	0.053455044
19	0xbe152adb	-0.1456713
20	0xbebc55b0	-0.36784124
21	0x3ea9160a	0.33024627
22	0x3edbf342	0.42959028
23	0xbdf8bf96	-0.12145917
24	0xbe93ce18	-0.28868175
25	0x3c9f7cd9	0.019468712
26	0xbcde5cd9	-0.027143883
27	0x3ef045b8	0.4692819
28	0x3e975f10	0.29564714
29	0x3d69141d	0.056903947
30	0x3e9a8582	0.30179983
31	0x3ee5be30	0.44871664
32	0xbed3a6c4	-0.4133817
33	0xbe82d58c	-0.25553548
34	0xbe0caa35	-0.13736804
35	0x3ee80ecc	0.4532379
36	0xbe1b7435	-0.15181048
37	0xbe0f488f	-0.13992523
38	0xbeb375f4	-0.3505093
39	0xbe3418f1	-0.1758764
40	0x3ef3ff68	0.47655797
41	0x3edeed6c	0.43540514
42	0xbed3a6e0	-0.41338253
43	0xbe84a738	-0.25908828
44	0xbea55896	-0.32294148
45	0xbecf3a90	-0.40474367
46	0x3e146653	0.14492159
47	0x3e50c08f	0.20385955
48	0xbeb61f66	-0.3557083
49	0x3e388943	0.18021111
50	0xbede9bb0	-0.43478155
51	0x3ec86d26	0.39145774
52	0x3d98e1fa	0.074649766
53	0xbe73917f	-0.23785971
54	0x3d9ef20e	0.07761012
55	0xbd3425b3	-0.043981265
56	0xbeab5ff4	-0.33471644
57	0xbeec5662	-0.46159655
58	0x3efba1e0	0.49146938
59	0x3e9a04ea	0.30081874
60	0x3ec0ad44	0.3763219
61	0xbe2934b5	-0.16524012
62	0xbeaee598	-0.3415954
63	0x3dbf471e	0.093397364

policy.weight f4 [2, 64]
0	0x3ded9fff	0.116027825
1	0x3da46aca	0.08028181
2	0x3c22820d	0.009918702
3	0x3dde9d30	0.10869825
4	0x3dfb7b2e	0.12279354
5	0xbcf86be1	-0.030324878
6	0xbdc27ad0	-0.09496081
7	0x3d385486	0.045002483
8	0xbcf817a7	-0.030284716
9	0x3b6e61b7	0.003637416
10	0xbd73cd48	-0.059521943
11	0x3d7e96e1	0.062155608
12	0x3dba966c	0.09110722
13	0x3dc45904	0.09587291
14	0x3de84860	0.113419294
15	0xbd1ae7bd	-0.03781866
16	0xbca26431	-0.019823166
17	0xbdbeffd0	-0.09326136
18	0xbd6af881	-0.057365898
19	0xbd3dd791	-0.04634816
20	0x3de6ea76	0.112751886
21	0x3b079cb7	0.0020692775
22	0x3a165adc	0.0005735585
23	0xbcffa0b7	-0.031204564
24	0xbc185b83	-0.009299162
25	0x3d812232	0.0630535
26	0xbd80d3ce	-0.062903985
27	0xbd07b031	-0.033127014
28	0xbded95ac	-0.11600813
29	0xba30ffda	-0.0006751992
30	0x3d8e4374	0.069464594
31	0x3d8c5ab4	0.06853238
32	0xbd6428d5	-0.055703003
33	0x3bf3d2c0	0.007440895
34	0x3dc050d0	0.09390414
35	0xbd003ce5	-0.031308074
36	0x3dfa5ec0	0.122251034
37	0x3df9cee9	0.12197668
38	0xbda8de64	-0.08245543
39	0x3d41d9a9	0.047326718
40	0x3afdb2ed	0.0019355692
41	0x3da3eee0	0.08004546
42	0xbdcfb277	-0.10141461
43	0xbdad4bf8	-0.084617555
44	0xbdd506c2	-0.104016796
45	0xbd9a6c10	-0.075401425
46	0x3c3c78fe	0.011503456
47	0xbcb7de31	-0.022444816
48	0xbdddd27c	-0.10831162
49	0x3cedfb8f	0.029050617
50	0xbd914f2a	-0.070951775
51	0xbd02cc4d	-0.031933118
52	0xbcd80df9	-0.02637385
53	0xbce504dc	-0.027956419
54	0x3d543437	0.05180761
55	0xbcc76411	-0.024339708
56	0x3c5ed6c0	0.013601005
57	0xbd9b87cf	-0.07594263
58	0x3d79a41f	0.060947534
59	0xbde4b69a	-0.11167641
60	0xbc4ea842	-0.012613358
61	0xbda01f6d	-0.07818494
62	0x3bc3efc0	0.005979508
63	0x3d9cae5c	0.07650444
64	0xba31d47c	-0.0006783677
65	0xbd9c1372	-0.076208964
66	0xbde0db28	-0.10979301
67	0xbc966c02	-0.018362049
68	0x3dc06088	0.09393412
69	0xbc5fa2de	-0.01364967
70	0xbd84ac04	-0.06478122
71	0x3da166e1	0.07880951
72	0x3d850cd4	0.064965874
73	0xbd853660	-0.06504512
74	0xbc3a61f0	-0.011375889
75	0x3cf4d087	0.02988459
76	0x3da47582	0.08030225
77	0xbd4973e9	-0.049182806
78	0x3dc29a4a	0.095020846
79	0xbd8e22c4	-0.06940225
80	0x3cb87de9	0.022520976
81	0xbd289a03	-0.041162502
82	0xbcb55c57	-0.022138758
83	0xbdb44bd4	-0.088035256
84	0x3deaeb34	0.11470643
85	0xbd43d027	-0.04780593
86	0xbd718917	-0.05896863
87	0xbdd67076	-0.10470669
88	0x3d537ea9	0.051634464
89	0x3d9ce3ac	0.076606125
90	0xbd223467	-0.039600756
91	0xbd80e0e8	-0.062928975
92	0xbc728f1e	-0.01480463
93	0x3c97aeef	0.018516032
94	0x3dc03984	0.0938597
95	0xbdae350e	-0.08506213
96	0x3d57ceed	0.052687574
97	0x3ddc99a2	0.10771491
98	0x3d91cf8a	0.07119663
99	0xbcad9dbf	-0.021193383
100	0xbdb9ee8e	-0.09078704
101	0x3ddcbbdf	0.10778021
102	0xbdcb34d4	-0.099221855
103	0xbd82c182	-0.06384565
104	0x3da623c2	0.08112289
105	0x3bd942c4	0.0066302735
106	0x3dcb55ad	0.09928451
107	0x3dd54842	0.10414173
108	0x3db15c14	0.08660141
109	0x3cbd4486	0.023103964
110	0x3d3439f1	0.04400057
111	0xbcbb0717	-0.02283053
112	0x3da36f2a	0.07980187
113	0xbdfc12ca	-0.12308271
114	0xbdaa6cb0	-0.08321512
115	0xbdd2bf70	-0.1029042
116	0x3d93c03e	0.07214402
117	0xbdc2fca3	-0.09520843
118	0xbdfb30a6	-0.12265138
119	0x3d9dbd4c	0.07702121
120	0x3ceab370	0.028650016
121	0x3d452345	0.04812934
122	0x3d290999	0.04126892
123	0xbd75c49b	-0.06000195
124	0x3db3382c	0.08750948
125	0x3db926e1	0.09040619
126	0xbc995e80	-0.018721819
127	0x3c3bbf92	0.011459248

policy.bias f4 [2]
0	0xbddc4558	-0.10755414
1	0x3d3e0a49	0.046396527

value.weight f4 [1, 64]
0	0x3deed734	0.116621405
1	0xbc2440b2	-0.01002519
2	0x3d25c6bf	0.040472742
3	0xbdf54fcc	-0.11978111
4	0x3dc757e0	0.09733558
5	0x3dc50458	0.09619969
6	0x3b5c52f7	0.0033618787
7	0x3d84b1a4	0.06479195
8	0xbdfa8354	-0.1223208
9	0xbd2dec99	-0.042461965
10	0xbd37f130	-0.04490775
11	0x3d63e7cf	0.05564099
12	0x3d95c10c	0.073122114
13	0x3df3232c	0.11871943
14	0x3db3affa	0.08773799
15	0xbd8e9b12	-0.06963171
16	0x3a3e86da	0.0007268019
17	0xbcb21c59	-0.021742033
18	0xbc809299	-0.015694903
19	0x3dd8dfa2	0.105895296
20	0x3d9bdd9e	0.076106295
21	0xbdc47034	-0.095917135
22	0xbddeb69c	-0.10874674
23	0x3cefd577	0.029276593
24	0xbc9b3ce1	-0.018949928
25	0xbd839006	-0.06423955
26	0x3dedc31a	0.11609478
27	0xbdbef966	-0.09324913
28	0xbdcd4896	-0.1002361
29	0xbd2a2841	-0.041542295
30	0xbd727ed1	-0.059202973
31	0x3d5acfdb	0.053420883
32	0x3c78fe1e	0.015197305
33	0x3d531380	0.05153227
34	0xbd2357a9	-0.03987852
35	0x3a7a78de	0.0009554754
36	0xbd80e782	-0.062941566
37	0x3debbfab	0.11511167
38	0xbde732bc	-0.11288974
39	0xbdb97df0	-0.09057224
40	0xbd6668b5	-0.0562522
41	0xbdebb842	-0.11509754
42	0xbd9c77f4	-0.07640067
43	0x3da19272	0.0788926
44	0xbddede0c	-0.10882196
45	0xbdadafa4	-0.084807664
46	0xbdd40b8a	-0.103537634
47	0xbdf9cdbe	-0.12197445
48	0xbce492e8	-0.027902082
49	0xbd178ec5	-0.03700139
50	0xbbdb8040	-0.006698638
51	0x3cf22207	0.029557241
52	0x3dc4d5c8	0.09611088
53	0x3d4cf3a3	0.050037038
54	0xbd8f8ede	-0.07009672
55	0xbb1a63c9	-0.0023558012
56	0xbd059420	-0.032611966
57	0x3da0b05a	0.078461364
58	0x3d963b6a	0.07335551
59	0x3dbf7650	0.09348738
60	0x3d93d882	0.0721903
61	0xbc84cc91	-0.016210826
62	0x3ddada6a	0.106861904
63	0xbdd9531c	-0.10611555

advantages.weight f4 [2, 64]
0	0xbd53a340	-0.05166936
1	0xbde5f6c0	-0.112287045
2	0x3dc26c06	0.0949326
3	0xbc9f8e50	-0.01947704
4	0xbc6eb820	-0.014570266
5	0x39674c00	0.00022058189
6	0x3daf1986	0.0854979
7	0x3a1d2700	0.0005994886
8	0x3de729e6	0.11287288
9	0xbdf0b9e4	-0.11754206
10	0x3ca1c210	0.019745857
11	0xbd515830	-0.051109493
12	0xbd1b8d28	-0.037976414
13	0x3d211d54	0.03933461
14	0xbda21fea	-0.079162434
15	0xbdd14b90	-0.102194905
16	0xbdaf7e24	-0.08568981
17	0xbc3a1380	-0.011357188
18	0x3d8a31b4	0.06747761
19	0x3dd5dea4	0.10442856
20	0xbdcbe81a	-0.09956379
21	0x3d5122f4	0.051058725
22	0xbcd43390	-0.025903493
23	0x3cb64f98	0.02225475
24	0xbde43f14	-0.11144844
25	0xbdbd42b6	-0.0924124
26	0xbdd9f6f2	-0.10642804
27	0xbd55d640	-0.052206278
28	0x3dcceaae	0.10005699
29	0x3c983538	0.018580064
30	0xbda4c8ae	-0.08046089
31	0xbcfc2338	-0.030778512
32	0xbcf7d880	-0.030254602
33	0xbb094ec0	-0.002095148
34	0x3dededc8	0.11617619
35	0xbc93be40	-0.018035054
36	0xbc799920	-0.015234262
37	0xbcd5a468	-0.026079372
38	0xbd99a57c	-0.07502267
39	0x3d25aa54	0.04044564
40	0x3c573bd0	0.013136819
41	0xbce67f98	-0.028137013
42	0xbd99a1c4	-0.075015575
43	0xbde3fd90	-0.111323476
44	0xbd00ede8	-0.031476885
45	0x3cda2cb8	0.026632652
46	0xbd6fced8	-0.05854687
47	0x3d87d780	0.066329
48	0x3d8373d0	0.06418574
49	0x3dbe6dbc	0.09298274
50	0x3cff4738	0.03116189
51	0x3d9fcf90	0.07803261
52	0x3ce39c38	0.027784452
53	0x3d2e8cc8	0.04261473
54	0x3dad1ff2	0.08453359
55	0xbd7e0654	-0.062017754
56	0xbcf95750	-0.030437142
57	0x3c8ffc68	0.017576411
58	0x3c37a100	0.011207819
59	0xbbad7d80	-0.005294502
60	0xbc6190c0	-0.013767421
61	0xbd02f2ec	-0.03196995
62	0xbd70161c	-0.058614835
63	0x3d9146a8	0.07093555
64	0x3cef8748	0.029239312
65	0x3d2ab400	0.041675568
66	0x3d48a618	0.048986524
67	0x3db4edbe	0.08834408
68	0x3ddf253c	0.10895774
69	0xbd923e42	-0.07140781
70	0xbbf31520	-0.00741829
71	0xbd254da0	-0.040357232
72	0x3dc94048	0.09826714
73	0xbdbfffd4	-0.09374967
74	0xbd3409e8	-0.04395476
75	0x3c9bd210	0.019021064
76	0xbd8d5814	-0.06901565
77	0x3db5753c	0.08860251
78	0xbd8cce90	-0.06875336
79	0xbd1fb964	-0.03899516
80	0xbdc5a2a0	-0.09650159
81	0xbd11d320	-0.035601735
82	0x3c6f7360	0.01461491
83	0x3d6162c0	0.055025816
84	0x3ca5ad68	0.020224288
85	0x3d9cae5c	0.07650444
86	0x3d261720	0.040549397
87	0xbdd458b6	-0.10368483
88	0x3d629f04	0.05532743
89	0x3d3827d0	0.044959843
90	0x3d4522b0	0.048128784
91	0x3dfeb7dc	0.12437412
92	0x3d8dd10e	0.0692464
93	0x3d204330	0.039126575
94	0x3d242c00	0.040081024
95	0x3c2e7bb0	0.010649607
96	0xbda539e2	-0.08067681
97	0xbd8f5a78	-0.069996774
98	0x3dddefe4	0.10836771
99	0x3df158bc	0.11784503
100	0xbde7eaae	-0.113240585
101	0xbdfbca44	-0.122944385
102	0xbddeeaca	-0.10884626
103	0x3d97241a	0.07379933
104	0x3d8fb00e	0.07016002
105	0x3dfe5e1e	0.12420295
106	0xbd8b416a	-0.06799586
107	0xbd08b770	-0.033378065
108	0xbd20de74	-0.039274648
109	0xbd93b7e8	-0.07212812
110	0xbd74c880	-0.059761524
111	0xbc2f9d60	-0.0107186735
112	0xbddbd468	-0.10733873
113	0x3dd4816a	0.10376246
114	0xbdc2dff0	-0.09515369
115	0x3ddc2b1c	0.1075041
116	0x3bed8340	0.0072483122
117	0xbc023720	-0.007947713
118	0xbd6e1314	-0.058123663
119	0xbdb5ee98	-0.08883399
120	0x3d9cc90c	0.07655534
121	0x3df9d39a	0.12198563
122	0xbdc3f324	-0.0956786
123	0xbdd52202	-0.10406877
124	0x3d23061c	0.03980075
125	0x3d139254	0.03602822
126	0xbc7259f0	-0.014791951
127	0x3d6dd9d4	0.058069065

advantages.bias f4 [2]
0	0x3dc7bfee	0.097534046
1	0xbd8836a6	-0.06651048
