data/logs/A2C CartePole Example/models/linear-a2c.pt (torch, 5567 bytes, 7 tensors)

linear.0.weight f4 [64, 4]
00000000: 4760 ffbe 19f2 01bf 6d13 76bf 1f69 4bbc
00000010: ff15 aebe 8498 52bd 4f83 f3be bb74 a1be
00000020: 4994 06bf d0d7 84bf 0f7e adbd 4837 4b3f
00000030: 8c51 21bf b3d2 bcbe 09e4 163f 5409 053d
00000040: c3e8 1cbe 61f2 703d 7443 823c fd65 043f
00000050: 84db d53e 2977 08be b0e7 15bf 7814 fcbe
00000060: 0d1c 99bd 944a 4fbf c0a1 fc3c 4f5c 193f
00000070: 5f6d d3be 11a7 65bf 5486 71bf da91 423e
00000080: aa00 ab3e 9460 9cbe aca4 3cbf 98bb 153f
00000090: 2452 023d 9e68 10bf 3c00 eebe 8a7a c7be
000000a0: 79bd 49bf 8e6f 8cbe 718b 283f 83b2 453d
000000b0: cf1e 7ebe 74a2 9dbd 5c99 2cbe b222 da3e
000000c0: 1b8e 453e e0a1 10bf afbb f73c 2813 3b3f
000000d0: 724a b3be f306 5abf 47e3 d43d 4d28 943f
000000e0: a4ae 8bbe 80dc 9cbe eca8 f23d ae02 9fbe
000000f0: 6427 28be 3c5f 01bf 1a5c 653d fbfa 88be
00000100: 3e9b 96be 71f4 803e 155c 2ebf 0883 27bd
00000110: 52f3 cf3d a1e9 a13e 9c83 11bf 2d80 943e
00000120: 979d 013e c8b4 38be 663e 513e 3e5b 32be
00000130: ed40 c33d 194c ef3e a38b ca3e e79f 86bf
00000140: d6b2 dcbe 2330 0dbf e0cb 0cbe 37d9 913f
00000150: 3d3e b03d 693b 993d 4ca6 25bf 2cbe 0a3e
00000160: 6851 dabc 9035 9fbd 9c6e 9ebe e343 0bbf
00000170: 014d c4be 9ad4 1abf 17e2 d0be 92e0 263f
00000180: 7e2f 02be 0f3a 3bbf c064 96bf af07 70be
00000190: 2249 5d3e 3bc0 153e 5de8 3d3e fd66 67bd
000001a0: 6b43 9abd 2aae ec3e a569 713c 0c81 6cbe
000001b0: 5c6e ff3d ca3a c4be d833 31bf c224 06bf
000001c0: 7be7 0abe d1dc a8bc b22f 35be 4ecf bebe
000001d0: 7f74 5b3e 2724 14bf ba53 123d 2643 cd3e
000001e0: 7bdf 943e f79d 03bf b28f 21bf bd67 863e
000001f0: 1f95 84bc b32f 953e 6d2d 1fbf 6aa1 26be
00000200: fd3f 453e d32b 463f 5f6e 813e beec acbf
00000210: 34d9 b33d 2ee4 bb3d 836c 37bc 6e63 21bf
00000220: d5c5 5abc 19e2 193e 3b8b d03e f6e4 35bf
00000230: b7ae 15be a959 283e bab1 2fbf 1450 833e
00000240: bab3 1ebf ad50 3c3e de41 3cbe b6b2 dc3d
00000250: 7b1e e33d 246b 403e bcd8 48be 990b 473f
00000260: c3b8 59bf 532d a3be 10d1 963e 7827 7e3d
00000270: 1607 fe3e 2fee 6dbf f057 e6be dcdc 4c3f
00000280: 98ff 04bc ca6d 2cbe c56d d3be baf2 35bc
00000290: 5586 023d 7b1d a6be 5177 fcbd 4230 13be
000002a0: 6b8d 5c3f 2f94 8b3e 555c 13be 9cd0 48be
000002b0: 6771 aa3d 9d36 ecbb a2a9 b0be 39bc 71bf
000002c0: cc8e 623f 2922 de3d 36cb 803d 8bca 943d
000002d0: f490 1cbf 3f69 18bf c14e 4b3f a67c edbd
000002e0: 7db5 de3e 7339 99be fdea 2ebe 4e9a 08bf
000002f0: 1de0 cc3e 440a f2bd 3698 7f3e 5b23 9cbe
00000300: 446c b13e da07 e9bd d48a ccbe 2239 903f
00000310: 3f54 46bb f8a8 7abe 5ba5 06bf 4ddd 24bf
00000320: 2107 9fbe 6890 35bf e767 bbbd 20fc 50be
00000330: 4fbb b5bd 61f9 853e 32b8 24bf 6ae8 27bf
00000340: eb3d a53e 8e1c 9cbe 6c87 3d3e de1d 50be
00000350: 60ac 963e 0daf 81be 95f3 2cbf ebb5 53bf
00000360: 994c acbd eeb9 763e 3a6d 18bf 8549 22bf
00000370: 0442 4fbe 7407 48bf 0788 ebbe 4611 2ebf
00000380: 1dbb a3be 3222 fcbe 8567 4fbe 1b8c 29be
00000390: 2dbd a9be 4656 103f e0cc f6be 4882 8bbf
000003a0: 67f0 cd3e 5345 68be 9e2d 273e 4a03 d93d
000003b0: 9ca4 f63e c191 9dbe 0aec 203e 9bd2 f2bd
000003c0: 322b e3bd 2069 c6bc 7dc0 f4be b682 15bf
000003d0: 65d9 953e 6025 003f ec53 183f e75f 61bc
000003e0: 23cf 883e 2004 073f b592 70be 941e 23bf
000003f0: 4f3b d43d b79f 963e 84f1 febd 2591 ffbe
-0.4987814 -0.50760037 -0.9612339 -0.0124152 -0.34001157 -0.05141498 -0.47561118 -0.3153437
-0.52570015 -1.0378361 -0.084713094 0.7938123 -0.63015056 -0.368795 0.58941704 0.0324796
-0.15323167 0.0588249 0.015901305 0.5171812 0.4176904 -0.13326706 -0.5855665 -0.49234366
-0.074760534 -0.8097317 0.030838847 0.59906477 -0.4129438 -0.8970805 -0.94345593 0.1900095
0.33398944 -0.30542433 -0.7368877 0.5848937 0.031816617 -0.56409633 -0.46484554 -0.38960677
-0.7880474 -0.2742886 0.6583777 0.048265945 -0.2481644 -0.07697001 -0.16855377 0.42604595
0.1929249 -0.56497 0.030240862 0.73076105 -0.35017735 -0.85166854 0.10394912 1.1574799
-0.27281678 -0.30636978 0.118486255 -0.31056732 -0.16421276 -0.5053594 0.055996038 -0.26753983
-0.29415315 0.25186494 -0.68109256 -0.040896446 0.101538315 0.31623557 -0.56841445 0.2900404
0.12657772 -0.18037713 0.2043396 -0.17417619 0.09533868 0.46737745 0.3955966 -1.0517548
-0.4310519 -0.55151576 -0.13749647 1.1394414 0.08605621 0.07482035 -0.64706874 0.13549107
-0.026650146 -0.07773888 -0.30943763 -0.5440046 -0.3834 -0.60480654 -0.40797493 0.6518642
-0.1271343 -0.73135465 -1.1749496 -0.23440431 0.21609929 0.14624111 0.18545671 -0.0564947
-0.0753239 0.46226627 0.01473466 -0.23096102 0.12472221 -0.38326102 -0.6921973 -0.5239984
-0.13564865 -0.020613106 -0.17693976 -0.37267536 0.21431158 -0.57867664 0.03572438 0.40090293
0.29076752 -0.5141291 -0.63109887 0.2625102 -0.016184388 0.29137954 -0.6217869 -0.16272512
0.19262691 0.7741062 0.2527952 -1.3509748 0.087816626 0.09174381 -0.011195305 -0.6304234
-0.013352831 0.15027656 0.40731224 -0.7105249 -0.1461743 0.16440453 -0.68630564 0.25647032
-0.6199299 0.1839015 -0.18384501 0.10776274 0.11089798 0.18790871 -0.19613928 0.7775207
-0.8504755 -0.31870517 0.29456377 0.06204936 0.4961478 -0.92941564 -0.44988966 0.80024505
-0.008117579 -0.16838756 -0.41294685 -0.011105234 0.03186639 -0.32444367 -0.12327445 -0.14373878
0.86153287 0.27261493 -0.1439069 -0.19610828 0.08322411 -0.007208659 -0.3450442 -0.9442783
0.8849914 0.10846359 0.062887594 0.072651945 -0.6115868 -0.5953559 0.79417044 -0.115960404
0.4349784 -0.29926643 -0.17081828 -0.5336045 0.40014735 -0.11818364 0.24960408 -0.30495724
0.34652913 -0.11378451 -0.39949667 1.1267436 -0.0030262617 -0.24478519 -0.5259606 -0.6440018
-0.31060126 -0.7092347 -0.09150677 -0.20408678 -0.08873617 0.26166824 -0.6434356 -0.6558901
0.32273802 -0.30490535 0.1850869 -0.20323893 0.29428387 -0.25328866 -0.67559177 -0.8269946
-0.08413047 0.24094364 -0.59541667 -0.6339343 -0.20240027 -0.7813637 -0.46002218 -0.6799511
-0.31978694 -0.4924484 -0.20254333 -0.16557352 -0.33152142 0.5638164 -0.48203182 -1.0899134
0.40222475 -0.22682695 0.16325995 0.105963305 0.48172462 -0.30775264 0.15715042 -0.11856576
-0.11092223 -0.02422005 -0.47803107 -0.58402574 0.2926742 0.5005703 0.59503055 -0.013755775
0.26720533 0.5274067 -0.23493464 -0.63718534 0.10362875 0.29418728 -0.12448409 -0.49915424

linear.0.bias f4 [64]
00000000: 0d2a 673f 52cf a83f 5d55 7a3f 1b0f 7cbe
00000010: a25d a83f ffab d03f c798 ad3f 1c0a 2e3f
00000020: 0f48 813f 6ef4 ba3f ce36 69be 6411 983f
00000030: fcd0 903f 4d80 893f b812 ad3f bd11 b93f
00000040: 192c ca3f dcfc bc3f 06a8 a13f f837 8f3f
00000050: cb38 7f3f 3fd7 b43f d704 be3f b061 993f
00000060: 0338 6d3f dd0e 983f 51c0 983f 643a c63f
00000070: 9a4e af3f 5505 a23f 9116 ba3f 89fc d13f
00000080: e8be 703f dfb9 823f 0f2d 8f3f b7ee d83f
00000090: 911b 87bd d9a6 8a3f 4a54 91be fcf5 823f
000000a0: 69f6 cf3f 1151 bd3f 10f7 4bbc 3d37 883f
000000b0: 2abe 83bc ea2e b2be b7d6 9d3f 1d64 a23f
000000c0: 1a0b 773f 162b af3f 6eb4 babe 811c ce3f
000000d0: d95a 9f3f 07b0 883f f548 a03f 52e8 9f3f
000000e0: 18a8 81be c236 703f 1fa2 d53f 9a14 bc3f
000000f0: 1a86 c73f 5938 8d3f bbf3 6c3f 4973 9c3f
0.9029854 1.3188269 0.97786504 -0.24615137 1.3153574 1.6302489 1.3562249 0.67984176
1.0100116 1.4605844 -0.22774813 1.1880307 1.1313777 1.0742279 1.3521338 1.4458538
1.5794708 1.4764667 1.2629402 1.1188955 0.99696034 1.4128188 1.4845227 1.1982937
0.9266359 1.1879536 1.193369 1.548657 1.3695862 1.2657877 1.4538137 1.6405193
0.940413 1.0212973 1.1185626 1.694785 -0.06597055 1.0832168 -0.2838462 1.0231318
1.6247073 1.4790365 -0.012449041 1.0641857 -0.016081888 -0.34801418 1.2331151 1.2686802
0.96501315 1.3685024 -0.36465782 1.6102449 1.24496 1.0678719 1.2522265 1.2492774
-0.25323558 0.93833554 1.66901 1.4693787 1.55878 1.1032821 0.92559403 1.2222682

policy.weight f4 [2, 64]
00000000: 169a 543e f4df 2d3e 0f43 7ebc 2436 08bc
00000010: ff85 05be 50c9 b03d e97c 63be dde2 223e
00000020: 66d9 e039 bafa 053e 09ba 60be b7bb 4cbe
00000030: a9bd afbd ec79 87bd cdcd ff3d 2c0a 2dbd
00000040: a014 4ebd f31c 66be 5903 cebd b4ea da3b
00000050: 4407 bcbd 1b53 bdbd 7a52 b63d da14 3abe
00000060: 0d2d 663e bcb0 a7bd 3b2f 04be 8b48 f33d
00000070: 3fdb 91bd d289 f8bd 8115 e43c 4385 893d
00000080: 7539 853a c1b9 2a3d 1844 a63d e468 07be
00000090: 693b 203d eec4 3abe 8946 1cbe 5b43 d83d
000000a0: 6448 02bd 3a40 5d3d cdda 21bc e7f0 123e
000000b0: a509 53bd f90b d9bd fd09 563e 7376 cbbb
000000c0: f7b8 3abe 36e9 623e 0ead 1e3e d52a 443d
000000d0: 88d3 66bc fd66 923e f7d4 133e 0162 5f3e
000000e0: 1cbd 403e d896 8bbc 9f0b d9bc 70b0 0dbe
000000f0: ed32 b13d 68c9 86be da2e 20bd 5149 b03d
00000100: bff7 bcbd 48b4 29be 7fc2 acbd ec08 ca3d
00000110: e0b9 b13e 526c 05be 05a6 7f3d 4069 10bd
00000120: 204c 0c3d 67dc 44be 9220 183e b87d 953e
00000130: 5eb2 833e f018 e73d dc14 ab3d 9a11 85bd
00000140: 7521 593d 23ed b83d 55c0 ac3c 2373 10be
00000150: 3a77 a33e ce4f 3f3d 1df5 16be eca1 3b3d
00000160: 1ad3 3abe 4adb 623e c1c1 d93c c900 5cbe
00000170: 9818 74bd d389 0e3e d6bb 0a3e 9b5f abbd
00000180: 6d1d 84bb f579 963d 41dc ab3d db4b a33d
00000190: 5ed8 fabb 2505 d33e 8c18 eebc fc17 fabd
000001a0: c93e eb3d d9c5 053d 66e9 fd3b 8ae5 fdbd
000001b0: 4fb4 0b3d 03e2 5b3d eb33 1dbe da03 20bd
000001c0: 4b87 1d3e 9899 a1be 7b45 9ebe 8b1d 3bbe
000001d0: 642e 753d 8576 d1be 4360 5cbe dc6f 29be
000001e0: 4679 15be 9283 30bc e6cc 033e f66f 08bd
000001f0: 897e 3ebc 3e0b 8d3e 47fb d73c 0a40 f73a
0.20761904 0.16979963 -0.015518918 -0.008313689 -0.13039397 0.08632147 -0.22215618 0.15906854
0.00042886584 0.13083926 -0.21945967 -0.19993483 -0.08581097 -0.066150516 0.12490425 -0.04224603
-0.05031264 -0.22471981 -0.10059232 0.006680811 -0.09181073 -0.09244367 0.0890245 -0.18172017
0.22478123 -0.08188006 -0.12908642 0.11879071 -0.07121896 -0.12135662 0.027842285 0.06714871
0.0010164218 0.041681055 0.081184566 -0.13223606 0.039119158 -0.18239185 -0.15261282 0.10559722
-0.03180732 0.05401633 -0.009878826 0.1434971 -0.05152287 -0.10597987 0.20902248 -0.0062091886
-0.18234621 0.22159275 0.15495703 0.04789241 -0.014088519 0.285942 0.14436708 0.2181473
0.1882214 -0.017039701 -0.0264948 -0.13836837 0.086522914 -0.26325536 -0.03910718 0.08607734
-0.09226941 -0.16572678 -0.08435535 0.09864983 0.34712124 -0.13029602 0.062414188 -0.035256624
0.034252286 -0.19224702 0.14856175 0.29197478 0.2572202 0.11284053 0.08353588 -0.06497498
0.053010423 0.09029605 0.021087805 -0.14106421 0.319269 0.046706967 -0.14741941 0.045808718
-0.18244591 0.22153965 0.026581647 -0.21484675 -0.059593767 0.13919763 0.13548216 -0.08367845
-0.004031828 0.0734748 0.083916195 0.07973453 -0.0076551875 0.41214862 -0.02906444 -0.12211606
0.11486585 0.032659385 0.0077487705 -0.12397297 0.034107503 0.05368234 -0.15351836 -0.039066173
0.15383641 -0.31562495 -0.30912384 -0.18272988 0.059858695 -0.40910736 -0.21521096 -0.16546577
-0.14597043 -0.010773556 0.12871131 -0.0333099 -0.011626848 0.2754764 0.026364936 0.001886369

policy.bias f4 [2]
00000000: 718b 13be c1d6 a93d
-0.14408661 0.08292914

value.weight f4 [1, 64]
00000000: 80e9 803f b92f 953f ca63 7a3f 0e6a 39bf
00000010: 5f0e 9d3f 5f90 923f f069 8f3f 5ca8 323f
00000020: 20f2 893f a9c6 893f 2272 3abf b9bb a43f
00000030: 9159 aa3f c283 983f 83e7 9b3f c839 863f
00000040: cdcf 893f 9834 883f d130 993f d5d5 943f
00000050: 27a8 9f3f 5e12 833f c1d8 7d3f 4b23 963f
00000060: bc8a 743f 6291 853f a96c 9b3f ee87 7f3f
00000070: e90c 853f 042f 953f 1fa8 883f b891 8c3f
00000080: c5b1 7f3f a89a 9e3f 9303 993f 284d 873f
00000090: 99ee 31bf d1f6 a73f 008e 4ebf e143 903f
000000a0: 1305 833f 4c5e 7e3f bdef 15bf 2637 af3f
000000b0: 9ab6 f2be 59ad 44bf 7305 8b3f 9c62 823f
000000c0: d814 8e3f c19c 8e3f 0162 e2be 9ea4 8a3f
000000d0: 3486 a33f ca44 ae3f 6e4b 8d3f ee2c 8d3f
000000e0: e687 2ebf f71f ab3f 66eb 8f3f 9c84 973f
000000f0: 9225 923f 18b8 6c3f 7ef1 843f 5979 803f
1.0071259 1.1655189 0.97808516 -0.7242745 1.2270011 1.1450309 1.1204205 0.69788146
1.0777016 1.0763751 -0.728304 1.2869788 1.3308583 1.1915209 1.2180027 1.0486383
1.0766541 1.064105 1.1968023 1.1627756 1.2473191 1.023998 0.99158865 1.172952
0.9552419 1.0434992 1.2142535 0.9981679 1.0394565 1.1654973 1.0676306 1.098197
0.9988063 1.2390947 1.1954216 1.0570421 -0.69504696 1.3122197 -0.80685425 1.1270715
1.0235924 0.99362636 -0.58568937 1.3688705 -0.4740494 -0.7682701 1.0861038 1.0186343
1.1100111 1.1141587 -0.44215396 1.0831487 1.277533 1.3614743 1.1038644 1.1029336
-0.68176115 1.336913 1.1243713 1.1837344 1.1417716 0.92468405 1.0386198 1.0037032

advantages.weight f4 [2, 64]
00000000: 40a3 53bd c0f6 e5bd 066c c23d 508e 9fbc
00000010: 20b8 6ebc 004c 6739 8619 af3d 0027 1d3a
00000020: e629 e73d e4b9 f0bd 10c2 a13c 3058 51bd
00000030: 288d 1bbd 541d 213d ea1f a2bd 904b d1bd
00000040: 247e afbd 8013 3abc b431 8a3d a4de d53d
00000050: 1ae8 cbbd f422 513d 9033 d4bc 984f b63c
00000060: 143f e4bd b642 bdbd f2f6 d9bd 40d6 55bd
00000070: aeea cc3d 3835 983c aec8 a4bd 3823 fcbc
00000080: 80d8 f7bc c04e 09bb c8ed ed3d 40be 93bc
00000090: 2099 79bc 68a4 d5bc 7ca5 99bd 54aa 253d
000000a0: d03b 573c 987f e6bc c4a1 99bd 90fd e3bd
000000b0: e8ed 00bd b82c da3c d8ce 6fbd 80d7 873d
000000c0: d073 833d bc6d be3d 3847 ff3c 90cf 9f3d
000000d0: 389c e33c c88c 2e3d f21f ad3d 5406 7ebd
000000e0: 5057 f9bc 68fc 8f3c 00a1 373c 807d adbb
000000f0: c090 61bc ecf2 02bd 1c16 70bd a846 913d
00000100: 4887 ef3c 00b4 2a3d 18a6 483d beed b43d
00000110: 3c25 df3d 423e 92bd 2015 f3bb a04d 25bd
00000120: 4840 c93d d4ff bfbd e809 34bd 10d2 9b3c
00000130: 1458 8dbd 3c75 b53d 90ce 8cbd 64b9 1fbd
00000140: a0a2 c5bd 20d3 11bd 6073 6f3c c062 613d
00000150: 68ad a53c 5cae 9c3d 2017 263d b658 d4bd
00000160: 049f 623d d027 383d b022 453d dcb7 fe3d
00000170: 0ed1 8d3d 3043 203d 002c 243d b07b 2e3c
00000180: e239 a5bd 785a 8fbd e4ef dd3d bc58 f13d
00000190: aeea e7bd 44ca fbbd caea debd 1a24 973d
000001a0: 0eb0 8f3d 1e5e fe3d 6a41 8bbd 70b7 08bd
000001b0: 74de 20bd e8b7 93bd 80c8 74bd 609d 2fbc
000001c0: 68d4 dbbd 6a81 d43d f0df c2bd 1c2b dc3d
000001d0: 4083 ed3b 2037 02bc 1413 6ebd 98ee b5bd
000001e0: 0cc9 9c3d 9ad3 f93d 24f3 c3bd 0222 d5bd
000001f0: 1c06 233d 5492 133d f059 72bc d4d9 6d3d
-0.05166936 -0.112287045 0.0949326 -0.01947704 -0.014570266 0.00022058189 0.0854979 0.0005994886
0.11287288 -0.11754206 0.019745857 -0.051109493 -0.037976414 0.03933461 -0.079162434 -0.102194905
-0.08568981 -0.011357188 0.06747761 0.10442856 -0.09956379 0.051058725 -0.025903493 0.02225475
-0.11144844 -0.0924124 -0.10642804 -0.052206278 0.10005699 0.018580064 -0.08046089 -0.030778512
-0.030254602 -0.002095148 0.11617619 -0.018035054 -0.015234262 -0.026079372 -0.07502267 0.04044564
0.013136819 -0.028137013 -0.075015575 -0.111323476 -0.031476885 0.026632652 -0.05854687 0.066329
0.06418574 0.09298274 0.03116189 0.07803261 0.027784452 0.04261473 0.08453359 -0.062017754
-0.030437142 0.017576411 0.011207819 -0.005294502 -0.013767421 -0.03196995 -0.058614835 0.07093555
0.029239312 0.041675568 0.048986524 0.08834408 0.10895774 -0.07140781 -0.00741829 -0.040357232
0.09826714 -0.09374967 -0.04395476 0.019021064 -0.06901565 0.08860251 -0.06875336 -0.03899516
-0.09650159 -0.035601735 0.01461491 0.055025816 0.020224288 0.07650444 0.040549397 -0.10368483
0.05532743 0.044959843 0.048128784 0.12437412 0.0692464 0.039126575 0.040081024 0.010649607
-0.08067681 -0.069996774 0.10836771 0.11784503 -0.113240585 -0.122944385 -0.10884626 0.07379933
0.07016002 0.12420295 -0.06799586 -0.033378065 -0.039274648 -0.07212812 -0.059761524 -0.0107186735
-0.10733873 0.10376246 -0.09515369 0.1075041 0.0072483122 -0.007947713 -0.058123663 -0.08883399
0.07655534 0.12198563 -0.0956786 -0.10406877 0.03980075 0.03602822 -0.014791951 0.058069065

advantages.bias f4 [2]
00000000: eebf c73d a636 88bd
0.097534046 -0.06651048
