data/logs/CEM CartePole Example/models/linear-cem-iter0.pt (torch, 5567 bytes, 7 tensors)

linear.0.weight f4 [64, 4]
000000 9e f1 db bc 0f 3a d0 3e 71 78 05 3e 90 da 7f 3d
       -0.02684861 0.40669295 0.13034226 0.062464297
000010 0b 13 fa 3e 1b 06 be 3d ea 5f 61 be 28 37 d8 bd
       0.48842654 0.09278508 -0.22009245 -0.10557395
000020 3b 11 d2 3e 79 7e ad 3e 75 ca b6 3e 50 89 aa be
       0.4102877 0.33885553 0.35701337 -0.33307886
000030 e4 97 df bd 35 1d 16 3e 04 61 7c 3d ea c7 71 3e
       -0.10917643 0.14659579 0.06161596 0.23611417
000040 1c e5 e3 bd 6d e7 93 be 4e 8d 3e 3e 2c 69 cf 3e
       -0.111276835 -0.288875 0.18608591 0.40509927
000050 50 5a 67 bd f6 b3 be 3e b8 2d 34 be 2e 4b e4 3e
       -0.056482613 0.37246674 -0.17595565 0.44588608
000060 75 7e a2 bd 64 11 01 3f be b8 b7 bd d9 26 37 3c
       -0.07934276 0.5041716 -0.08970784 0.011178696
000070 fc ef ab 3e c0 a3 34 3e 62 14 d6 3d 59 78 83 3e
       0.3358153 0.1764059 0.104531065 0.25677755
000080 49 4a 76 3e 17 41 19 bd 8b a3 dc 3d 57 3f 2f 3e
       0.24051775 -0.03741559 0.10773381 0.17114006
000090 ff 61 f2 bd 54 a4 45 3b f2 bf e1 be ab d8 09 3e
       -0.118350975 0.0030157762 -0.44091755 0.13461559
0000a0 74 8e 91 3e 06 c8 00 3e c6 42 e4 be f0 ce 2e 3e
       0.28428996 0.12576303 -0.44582194 0.17071128
0000b0 12 9d f5 be 69 b6 d7 be c6 83 a4 be 28 69 cb bc
       -0.47971398 -0.42131355 -0.32131785 -0.024830416
0000c0 11 6d 54 be 06 a0 31 3e 6d 69 e7 be 94 93 d5 3e
       -0.2074473 0.173462 -0.4519762 0.41714156
0000d0 76 a7 36 be 8e 0d d1 be 48 a7 f1 bd da d6 02 bd
       -0.17837319 -0.40830654 -0.117994845 -0.03194318
0000e0 c2 fb da bd be 15 bf be 14 ba cd be a2 71 ef 3e
       -0.1069255 -0.37321275 -0.4018103 0.46766382
0000f0 56 d2 b1 3e 08 0e cb 3e c2 b3 a5 3d 72 00 d1 bd
       0.34730786 0.39659142 0.08090927 -0.10205163
000100 73 0f 63 3e b2 99 db be 6d ab 37 3e 80 00 9a 39
       0.22173862 -0.42890698 0.17936487 0.00029373541
000110 0a 8f ac be 1d 47 78 be 58 9e 3e 3d 22 a4 af 3e
       -0.3370288 -0.24245878 0.046537727 0.3430491
000120 3c bd 81 3d 0d d4 eb be 91 d5 9b 3d c9 c1 ac 3e
       0.06334922 -0.4606022 0.07609094 0.33741596
000130 60 88 24 3e 7d c0 fc bd 04 27 cd 3e 8b c7 40 3e
       0.16067648 -0.12341402 0.4006883 0.1882612
000140 07 34 25 be 42 84 bc 3d b2 1f de be c0 b8 be 3e
       -0.16133128 0.09204914 -0.43383557 0.37250328
000150 ed 28 83 3e 51 dd b4 3e 73 7a 01 3f b2 4f 4e 3e
       0.2561716 0.353251 0.5057747 0.20147589
000160 d9 d0 67 be e6 d1 11 3e fa 0a 00 3e 01 11 f1 be
       -0.22638263 0.14240226 0.12504187 -0.47083285
000170 ba 3e 90 be 18 be f8 3d af 80 99 3e 26 2d cd be
       -0.28172857 0.121456325 0.2998099 -0.40073508
000180 21 f4 e4 3d 99 74 92 be c7 43 fe be 7b 58 28 3e
       0.111793764 -0.28604582 -0.49661085 0.16440003
000190 d6 33 2c be 37 5f 50 3d 4e bd 1d bd 05 99 b5 3e
       -0.16816649 0.050872054 -0.038510613 0.35468307
0001a0 88 f4 5f bb 1d 42 ad be 3f 70 66 3e 94 51 c1 be
       -0.0034172852 -0.33839503 0.22503756 -0.37757552
0001b0 2e 7b da be 2f 2f 5e be 76 10 9c bd a4 24 39 3e
       -0.42672104 -0.21697687 -0.07620327 0.18080384
0001c0 ae de be bd de 73 9b 3d 41 6c 8b be 3a e6 ab be
       -0.093198165 0.07590459 -0.2723103 -0.33574086
0001d0 66 bb bc bc 16 01 d2 bc 9f e3 b7 be 3f ef ea be
       -0.023038577 -0.025635283 -0.3591585 -0.45885655
0001e0 ae f9 a6 bd 64 fd 3f be aa ff 4f 3e ef d0 5c 3e
       -0.08153091 -0.18749005 0.20312372 0.21564077
0001f0 d4 b1 60 3e f6 6c 0f 3e f0 e1 b0 be da 21 fd be
       0.21942836 0.14006409 -0.34547377 -0.4943989
000200 f1 20 84 be 6c d0 ea be 0b 83 8c 3d 7e 8c cf be
       -0.25806382 -0.45862138 0.06860932 -0.40536875
000210 d6 eb d2 be d6 02 51 3e f9 cd f4 be f5 40 31 3e
       -0.41195554 0.20411238 -0.47813395 0.17309935
000220 e8 07 92 bd 6e e2 84 3e e4 68 eb bd 7a fe d5 bd
       -0.07130414 0.25954002 -0.11494616 -0.10448928
000230 28 e8 a0 3e f1 a7 47 be 6f bb 86 3e 89 ae cb 3e
       0.3142712 -0.19497658 0.26314875 0.39781597
000240 81 5d a7 bd 60 d3 ea 3d 85 fc b4 bd 5f dd 8c be
       -0.08172131 0.11466098 -0.08837227 -0.27512643
000250 8e e6 00 3f 98 11 78 be 4f 39 9f be 1e a6 96 bc
       0.503518 -0.24225461 -0.3109841 -0.018389758
000260 a0 97 bd bd 42 c2 f0 3d 0a d6 25 3d 01 2b 36 be
       -0.09257436 0.11755802 0.040487327 -0.17789842
000270 13 76 aa be 54 27 56 be c6 01 d9 3e 58 42 87 bc
       -0.33293208 -0.2091344 0.42384166 -0.016511127
000280 03 c0 12 3c fe e2 f7 3e 53 2a d0 be 51 3e 3e 3e
       0.008956912 0.4841537 -0.4065729 0.1857846
000290 18 63 52 3e ab 80 b2 3e 58 79 ed be 91 aa b1 3e
       0.20545614 0.3486379 -0.4638164 0.34700444
0002a0 2b bd e8 3e 05 a2 92 bd 83 f2 b7 3e 2d 1e 7a be
       0.45456824 -0.07159809 0.3592721 -0.24425574
0002b0 e7 45 bf be a2 42 52 3e 88 9c 93 3e a8 8f 9c 3d
       -0.3735802 0.20533231 0.2883036 0.07644588
0002c0 60 68 bb 3d c0 a5 00 3d e0 f1 be be 08 75 1a be
       0.09150767 0.03140807 -0.3729391 -0.15083706
0002d0 86 c6 b6 3e e8 56 c2 3e 34 5d 07 be 20 a0 ae bc
       0.35698336 0.3795693 -0.13219148 -0.021316588
0002e0 b3 61 2d 3e 91 1f 5a be 9c 7c d4 be c7 3c d4 3e
       0.169318 -0.21301104 -0.4150132 0.4145262
0002f0 09 64 5f 3e 22 52 f3 be 17 8f f3 be dd 91 9c 3e
       0.21815504 -0.475236 -0.47570106 0.30580035
000300 ca 23 1f 3e 48 7b b9 3e a8 18 57 be dd b4 bc 3e
       0.15540996 0.3622687 -0.210055 0.36856738
000310 97 e1 c1 be e4 cc e8 3d a7 ed be 3e cd 55 dc be
       -0.37867424 0.11367205 0.3729069 -0.4303421
000320 72 e4 57 be dc 0e ae be 4e dd 99 3c 22 f7 c0 3c
       -0.21083239 -0.33995712 0.018782284 0.023555342
000330 e8 cb 91 3e 94 dd 12 3e 84 48 4a 3e 3c 64 80 3e
       0.2847588 0.14342338 0.19754225 0.25076473
000340 33 8d cd 3d c2 41 b6 3d 78 45 f0 3d b7 ae bd be
       0.10036697 0.08899261 0.11732 -0.3704736
000350 b8 3e 99 be a1 90 82 be 26 a3 eb be 04 30 91 3d
       -0.29930663 -0.25500968 -0.4602291 0.070892364
000360 3c ec ec 3e f5 26 ec 3e 7b f8 f5 be f7 24 84 3e
       0.46273983 0.46123472 -0.48041138 0.25809452
000370 e5 80 e6 bd 32 8f ce 3e c5 1a 07 3d 2b 1a dc be
       -0.112550534 0.40343624 0.032984514 -0.42988715
000380 4a bd a3 be 50 14 bb 3d 48 57 c4 3d 60 53 88 bd
       -0.31980354 0.09134734 0.0958696 -0.066565275
000390 b0 5d 8a 3d 89 61 e3 be 4d d8 ab be 07 19 92 3e
       0.06756151 -0.4441035 -0.33563462 0.2853472
0003a0 e2 f6 f2 3d 79 c4 f6 3e ec 4c ac be fa 52 be 3d
       0.118634954 0.48196772 -0.33652437 0.0929317
0003b0 e2 0a 8b 3e 5a 1c d5 be ce 0c c1 be 48 5d f4 be
       0.2715674 -0.41623193 -0.37705082 -0.47727418
0003c0 41 44 4e be ab 15 d8 3e 8f 4c 60 be 01 b6 f4 be
       -0.20143224 0.4220403 -0.21904205 -0.47795108
0003d0 e3 02 bc be 61 a1 ea 3e 6d 77 89 3e 00 6e b8 3e
       -0.36720952 0.45826247 0.26848927 0.36021423
0003e0 54 7e 65 be 59 6e 89 3e d9 ed ba be be ee 29 be
       -0.22411472 0.26842 -0.36509588 -0.16594979
0003f0 85 ac d4 be 32 d6 68 3e 25 d2 8c 3d 80 da d4 be
       -0.41537872 0.22737959 0.068760194 -0.41572952

linear.0.bias f4 [64]
000000 ff fa 65 bd 48 87 0f be 3a b1 bd be af 0b ae 3e
       -0.05614757 -0.1401645 -0.37049276 0.3399329
000010 e5 b3 bf be 12 0f dc be ae 66 e8 3d 41 b6 97 3e
       -0.37441936 -0.42980248 0.113477096 0.29631236
000020 67 c8 99 3e 19 1d c2 3e 28 b1 b5 bb e3 27 4f 3d
       0.30035707 0.37912825 -0.0055448003 0.05057515
000030 bd d5 c4 3e 74 b5 c8 3e dd c5 88 3e a7 20 d0 be
       0.3844432 0.39200938 0.26713458 -0.40649912
000040 eb 82 b3 be 6a b5 65 be 45 e7 b5 3e f7 a0 d2 3e
       -0.3506082 -0.22432485 0.35528007 0.4113843
000050 95 64 9f 3e 7d 1e 7f 3e 9f 04 48 3e b0 02 24 bc
       0.31131425 0.24913974 0.19533013 -0.010010406
000060 4b 17 62 3e 77 aa 25 3d c6 9c e2 3d 89 4a de 3e
       0.22079198 0.04044577 0.110650584 0.4341624
000070 22 81 f3 be 81 fd 04 be c9 51 8b be 08 b9 d9 be
       -0.47559458 -0.12987329 -0.27210835 -0.4252398
000080 17 dc 6e 3e e7 88 e5 3e 92 70 2a 3e c3 1e de bd
       0.23326145 0.4483101 0.16644505 -0.10845711
000090 8d 35 f6 3e 5c 18 02 3f b5 cf 68 be b5 50 cd 3d
       0.4808773 0.5081842 -0.22735484 0.10025159
0000a0 2a cd 4c 3e c9 0b 82 3e b5 4b 94 3e 64 d9 7a 3b
       0.20000139 0.25399616 0.2896401 0.0038276548
0000b0 b4 27 c1 be aa d3 f6 be 11 5c f5 3e 1c d1 f0 3e
       -0.37725604 -0.48208362 0.47921804 0.47034538
0000c0 37 6b fc 3d 40 d7 5b 3e 03 00 b0 3e ec 24 a5 be
       0.12325137 0.2146883 0.3437501 -0.32254732
0000d0 4e d9 35 bd c4 5f a1 bd 69 da 4b 3d c8 8d ab be
       -0.04439669 -0.07879594 0.04976884 -0.33506608
0000e0 52 12 bf be 04 a1 5b 3d 5c 11 29 3d fc 8c 99 bd
       -0.37318665 0.053620353 0.04127632 -0.07497594
0000f0 e7 38 e8 3e bd 06 48 3e 41 4f 3b 3e 0c 0a 5b 3e
       0.45355913 0.1953382 0.18291952 0.21390551

policy.weight f4 [2, 64]
000000 d3 01 e8 3d c7 f2 96 3d 64 ea ac 3d eb dd bb bc
       0.11328473 0.07370525 0.08443144 -0.022932967
000010 2e ca e7 bc cc 46 13 3d 4a 3e c5 bd b0 cd 42 ba
       -0.028294649 0.03595619 -0.09631021 -0.00074311625
000020 aa ec 96 bd f0 27 5a bd 3e e1 19 bd c6 14 1e 3c
       -0.07369359 -0.053260744 -0.037568323 0.009648507
000030 92 bd d2 bd 0a 60 43 3d 60 61 fe 3c 4e 53 95 bd
       -0.10290064 0.04769901 0.031052291 -0.0729128
000040 70 c4 4c 3d 37 99 14 3d 98 d5 d9 bd 50 84 04 be
       0.049992025 0.03627893 -0.10636443 -0.12941098
000050 74 ec e5 3c d1 fe 3a bc fe d0 a1 3d dc 11 a8 3d
       0.028066851 -0.011413292 0.0790119 0.082065314
000060 c6 d3 f3 3c ba 92 3b 3d d6 23 a2 bd d3 c1 b5 bd
       0.029764067 0.045794226 -0.079169914 -0.0887486
000070 1b 58 c5 3d 73 f9 91 bd dd 64 81 3d c8 6c e5 3d
       0.096359454 -0.07127657 0.06318066 0.11202389
000080 54 c5 56 bc 54 d0 01 3e 33 cd 66 3d 16 9d 47 3d
       -0.01310857 0.12677127 0.056348037 0.048733793
000090 49 ee 5e 3d 48 d6 08 3e 95 76 e0 3d 08 49 ab 3c
       0.054426465 0.13362992 0.10960118 0.020908847
0000a0 c7 a3 68 3d 9b e7 18 3c e4 b1 fa 3d 96 8c b5 bb
       0.056796815 0.009332563 0.12240961 -0.005540441
0000b0 34 ee 2b bd 4e 4d 83 3d 3a 81 d0 bb 67 b1 96 bd
       -0.041975215 0.06411229 -0.0063630613 -0.073580556
0000c0 05 c6 ca 3d 7f e5 83 bc 09 33 b5 3d f6 b0 9b bd
       0.099010505 -0.016100643 0.08847625 -0.07602112
0000d0 36 6b 87 3c 20 14 3c 3d 43 e2 08 3e 92 27 b4 bb
       0.016530614 0.04591763 0.13367562 -0.005497881
0000e0 44 b0 e9 3d e7 e6 aa bd 26 31 6e 3d 1b 0a a7 bd
       0.11410573 -0.083448224 0.05815234 -0.08156224
0000f0 75 27 cf bc 2f 56 19 3d cc f5 cf bd 82 23 da 3d
       -0.02528737 0.037435707 -0.10154304 0.10651304
000100 4a 63 4f bc 6a 91 0c 3c 86 fd cd 3d cb fe 05 bc
       -0.01265795 0.008579591 0.100581214 -0.008178423
000110 76 50 8d 3c e8 aa e4 3c d8 df f4 bd b0 c1 79 3a
       0.01725028 0.027913526 -0.11956757 0.0009527458
000120 3a 07 92 3d 80 c6 c5 3d f5 50 c0 bc 0f 84 c1 bd
       0.071302846 0.096570015 -0.023476103 -0.09449016
000130 45 3f 52 3d 6e 26 46 3d bc d7 6f bd 15 c8 74 bd
       0.05132987 0.048376493 -0.05855535 -0.059761126
000140 d6 6c 93 bd 2c d5 6b bd 7c aa 4f bb 64 af 6f 3d
       -0.07198493 -0.057576343 -0.003168731 0.058516875
000150 f7 f2 85 3d 2c 67 7f 3d 34 8b 8f bd a8 74 c5 3d
       0.065404825 0.06235425 -0.07008973 0.09641391
000160 f3 17 4b 3c 51 d1 bf bd 7a d6 a0 3c 49 ba ff 3d
       0.012395847 -0.09366096 0.01963352 0.12486703
000170 86 74 59 bd 57 f7 24 bd 6b 24 eb 3d d5 7b 51 3d
       -0.05308964 -0.040274944 0.114815556 0.051143486
000180 50 30 29 3b 5c 28 e8 bc 0f 4f 61 bd 03 e7 a8 bd
       0.002581615 -0.028339557 -0.055007037 -0.08247187
000190 be a3 87 3c 5f 37 97 3d 6b ef 2c 3d 90 a7 ef bc
       0.01655757 0.07383608 0.042220514 -0.029254705
0001a0 e0 4e 9e bd ee 6e cb bd 08 b2 3f 3d c1 e4 bf 3d
       -0.07729888 -0.099332675 0.046800643 0.09369803
0001b0 08 67 36 3d 08 22 22 3d 02 e8 9c bc 03 05 4a 3d
       0.044531852 0.039583236 -0.019153599 0.049321186
0001c0 9d 35 d3 3d fa 5f da 3b 0f 72 de bd 28 89 da bd
       0.1031296 0.0066642733 -0.10861599 -0.10670692
0001d0 03 35 60 3c 30 93 eb 3d 45 94 0f 3d 7c 24 d0 bc
       0.013684514 0.11502683 0.03505351 -0.025408022
0001e0 08 89 06 bd ad 5c d9 3d 76 93 03 be 6b cc ed bd
       -0.032845527 0.106133796 -0.1284922 -0.11611255
0001f0 09 6c 94 3d b9 86 3f 3d 40 d0 84 b9 96 b1 fb bd
       0.072471686 0.04675934 -0.0002533216 -0.12289731

policy.bias f4 [2]
000000 64 e1 dd 3d b5 3d 37 bd
       0.108340055 -0.044736583

value.weight f4 [1, 64]
000000 fa ed f1 3d 38 68 62 3d 58 cc 91 bd 7c e9 1f bd
       0.118129686 0.055275172 -0.071190536 -0.039041027
000010 10 d6 44 3c 12 a2 ff 3d 48 9d 90 bc 9c 99 81 bd
       0.012013927 0.12482084 -0.017653123 -0.06328127
000020 90 82 ce 3c 90 4e cb bc e4 d8 dc 3d 88 b5 04 3d
       0.025208741 -0.024817735 0.10783556 0.032399684
000030 3a 01 8b 3d 5e 4f ef bd a0 4b a5 bd 10 01 b3 3d
       0.06787343 -0.1168506 -0.08071065 0.08740437
000040 0e 04 e7 3d 08 d3 84 bd d8 e9 24 3d 44 a0 d5 3d
       0.1128007 -0.064855635 0.040262073 0.10430959
000050 40 00 5f 3b a8 1a cf 3c be 3c a1 3d 00 c7 33 bc
       0.0034027249 0.025281265 0.07872914 -0.010972738
000060 12 21 e5 bd e8 59 6d 3d 40 45 f1 3d f4 53 24 3d
       -0.11187948 0.05794707 0.117807865 0.040119126
000070 ac c7 18 bd 64 10 90 3d 1c cc 0f bd 3a a2 f7 3d
       -0.037299797 0.07034376 -0.035106763 0.12091489
000080 18 54 ff 3c 08 06 c5 3c 94 a5 3b 3d cc 07 68 bd
       0.031168029 0.024050727 0.045812204 -0.05664806
000090 2c 91 54 bd 9a 97 a0 3d 24 58 3a 3d 42 47 a5 3d
       -0.05189626 0.07841416 0.045494214 0.08070232
0000a0 08 c4 72 3d 84 be 58 3d 26 71 87 3d f8 f0 81 bc
       0.05926898 0.052916065 0.06613378 -0.015861973
0000b0 e0 2d 3d 3c 40 52 5f bb ac ff 2e bd 60 8a e5 bb
       0.011546582 -0.0034076124 -0.042724296 -0.007005021
0000c0 0c d9 7b 3d e6 f6 e9 3d 40 86 ce bd 60 46 9f bb
       0.06148629 0.11424045 -0.100842 -0.0048606843
0000d0 a0 80 62 bd f0 66 72 bc 1c 9a 4d 3d e0 48 8f 3c
       -0.055298448 -0.01479505 0.0501958 0.017490804
0000e0 f2 a7 d4 bd 2c 7b 2e bd 80 2e df bd 90 0d 83 3c
       -0.103835955 -0.042597935 -0.10897541 0.015997678
0000f0 40 b5 c9 3c 1c 50 72 3d 62 9c e1 bd 6c 0d 93 bd
       0.02462256 0.05915843 -0.11016156 -0.071802944

advantages.weight f4 [2, 64]
000000 be 86 87 3d 08 4a 0f 3d d0 63 d7 bc 56 7f e9 3d
       0.06617497 0.03498271 -0.026292711 0.114012405
000010 90 b5 0c bc 7e 39 c1 3d 7c 3b 26 bd bc c2 42 bd
       -0.00858821 0.09434794 -0.040584072 -0.047548994
000020 a4 05 20 bd da 1c 92 bd 28 a4 fc bd cc b2 7e 3d
       -0.03906788 -0.07134409 -0.12335998 0.062182233
000030 58 e0 81 bc 68 03 29 bd 56 54 d4 3d cc 4e 77 3d
       -0.015854046 -0.041263014 0.10367648 0.06037788
000040 2a d9 c4 3d 60 70 09 bd a8 b9 55 bd 12 cb 9f 3d
       0.09611733 -0.033554435 -0.05217901 0.078024045
000050 08 76 c0 3d 5a a6 b5 bd 78 e1 ee 3c 3c b1 b3 3d
       0.09397513 -0.0886962 0.029160246 0.08774039
000060 dc d0 2f 3d 38 6c 72 bd d0 30 c8 bc cc ba 8c bd
       0.042923793 -0.059185237 -0.024437338 -0.06871566
000070 84 2e 38 bd 28 73 ad bd c4 41 6f 3d c0 3f 79 bb
       -0.044966236 -0.0846923 0.05841233 -0.0038032383
000080 c6 4b ed bd 70 01 b2 bc 4e d4 bd bd 80 6b e8 3d
       -0.11586718 -0.021729201 -0.092690095 0.11348629
000090 c0 fd 57 3d 48 2e 8e 3d 00 c2 0e 3d 48 5b db 3c
       0.05273223 0.06942421 0.03485298 0.026776925
0000a0 78 58 44 bd 2a fa e3 3d 90 2d af 3d 88 63 a7 bd
       -0.047935933 0.111316994 0.08553612 -0.08173281
0000b0 fc 97 56 bd 50 32 e7 3d 54 3f e0 3d 3c 31 b1 bd
       -0.052391037 0.11288893 0.10949579 -0.08651969
0000c0 2c bb 99 3d 20 37 a0 3c aa 25 f4 3d 84 c5 ca bd
       0.07506403 0.019557536 0.11921246 -0.09900954
0000d0 56 50 9c 3d 70 f9 6a 3c b4 85 d1 3d e8 42 aa bd
       0.0763251 0.014341697 0.1023058 -0.083135426
0000e0 fc 4d 51 bd 9e 93 c3 3d c0 1b 20 bd f6 27 b6 bd
       -0.051099762 0.0954964 -0.039088964 -0.08894341
0000f0 84 a6 10 bd f0 1c 22 bc 7e b6 db bd c8 82 fe bd
       -0.03531505 -0.009894595 -0.10728167 -0.12427288
000100 32 b0 e2 bd d0 f7 f7 3d 0a 9d eb bd 74 b0 c0 3d
       -0.11068763 0.12107813 -0.11504562 0.09408656
000110 90 2f a7 3d b0 40 a1 bd ca c9 d1 bd c0 f5 ae 3b
       0.08163369 -0.07873666 -0.10243566 0.0053393543
000120 f4 c5 fa bd 52 60 8e 3d 00 21 fc bc f0 75 b8 3c
       -0.12244788 0.069519654 -0.030777454 0.022517174
000130 e8 34 9d 3c fc d7 8a 3d 62 d8 ae 3d ec b1 d9 3d
       0.019190267 0.06779477 0.085373655 0.10629639
000140 00 42 ae 39 16 77 93 bd 10 08 cf 3c d8 b7 06 bd
       0.0003323704 -0.07200448 0.0252724 -0.03289017
000150 9a ba ea 3d 00 e6 f1 3a 20 72 8a 3d 38 e4 a1 bc
       0.11461373 0.0018455386 0.06760049 -0.019762143
000160 0e c2 82 3d 10 8e ea 3c e8 02 c6 bd 82 bd e2 bd
       0.06384669 0.028632194 -0.09668523 -0.11071302
000170 4c b1 5a 3d d0 91 07 3c 78 f0 d6 bd 28 8a b4 bd
       0.05339174 0.0082745105 -0.104950845 -0.08815414
000180 a0 5f d4 bb a0 07 de 3d 14 e6 82 bd 00 4f 71 3d
       -0.006481126 0.10841298 -0.0639154 0.05891323
000190 70 16 3f 3c 00 5f 08 3c 84 f2 10 bd 0c 16 ba 3d
       0.011663064 0.008323431 -0.03538753 0.09086236
0001a0 64 12 9e 3d 18 d5 bd bd ac 0a b6 3d 10 df bc 3d
       0.077183515 -0.0926916 0.08888754 0.09222233
0001b0 b8 76 bb 3c 82 a3 de 3d ac e5 48 bd 30 44 b0 3c
       0.022883758 0.108710304 -0.049047157 0.02151689
0001c0 f8 d8 45 3d 78 c4 84 3d 44 fe 78 3d 42 ab c6 bd
       0.04830262 0.06482786 0.06078936 -0.097006336
0001d0 96 21 94 3d cc 42 1f 3d 2a 5a b3 bd 90 f2 7f bd
       0.072329685 0.03888206 -0.08757432 -0.062487185
0001e0 82 6f a5 3d d8 20 44 bd f8 64 22 3d 16 00 8f bd
       0.08077909 -0.047882885 0.039647073 -0.06982438
0001f0 d0 72 82 bc c0 55 91 3c 60 45 c1 bc 40 9f eb 3c
       -0.015923887 0.017741084 -0.02359265 0.02876246

advantages.bias f4 [2]
000000 40 97 0d bc f8 73 ce 3c
       -0.008642018 0.025201783
