data/logs/CEM CartePole Example/models/linear-cem-iter32.pt (torch, 5567 bytes, 7 tensors)

linear.0.weight f4 [64, 4]
-0.04727985 0.4054355 -0.115219854 -0.113690175 0.5055019 0.07511101 -0.51632595 -0.330315
0.2476596 0.19054423 0.31952184 -0.26423612 -0.13701925 0.25284967 0.37463748 0.48042652
-0.18235938 -0.33219165 0.3975175 0.59548396 -0.10309765 0.4129349 -0.19938965 0.42586693
-0.002933612 0.44574457 -0.38510185 -0.22302568 0.2818257 0.29139546 0.4336694 0.50610703
0.21474454 0.027753074 0.4043669 0.38665202 -0.17740114 0.014434965 -0.18504906 0.31710798
0.25567836 0.2420023 -0.15290616 0.3518131 -0.36129442 -0.39514127 -0.5400383 -0.1674991
-0.25322583 0.23297973 -0.15391412 0.63486475 -0.06387326 -0.38039178 0.0075673126 0.090780325
-0.018553976 -0.16623555 -0.34252945 0.43373626 0.27976835 0.27689698 0.002082787 -0.04503203
0.20839697 -0.3508585 0.21639092 -0.06609112 -0.37126508 -0.14155175 0.08053157 0.25708646
0.0119724255 -0.38401517 0.376442 0.57222193 0.1222812 -0.07048327 0.6943634 0.40249428
-0.19357921 0.18659171 -0.11781853 0.6240953 0.14171633 0.3884641 0.8266517 0.4096062
-0.1914066 0.034809392 -0.18918788 -0.7061869 -0.32895088 -0.031436637 0.07433781 -0.5626355
0.22421302 -0.122886755 -0.3168479 0.29909226 -0.1417643 0.1589914 -0.10634658 0.26246327
-0.06326975 -0.5085991 0.15607955 -0.34511602 -0.4802228 -0.19013588 0.19689839 0.38468114
-0.00046730088 0.16837323 -0.36383012 -0.41040164 -0.10685968 -0.16533922 -0.52442896 -0.5834046
-0.12572607 -0.21465878 0.3990976 0.41541606 0.19764787 0.18577754 -0.60865015 -0.6981195
-0.30009574 -0.6328929 -0.16604711 -0.56554085 -0.3659842 0.17687257 -0.7467905 -0.018736374
-0.03644872 0.17065865 -0.4155252 -0.34888119 0.32958955 -0.07177292 0.18161468 0.28367928
-0.055462293 0.025621552 -0.40190685 -0.52506125 0.5026122 -0.3217501 -0.6137391 -0.2438451
-0.062398933 0.1295149 -0.11553768 -0.26991132 -0.24666272 -0.0003718892 0.5628086 0.018334733
0.07414506 0.493253 -0.6781537 -0.02883537 0.22337107 0.4569005 -0.6046784 0.20634542
0.42340216 -0.16792111 0.06196004 -0.47611257 -0.40542635 0.27033824 0.60662323 0.31035134
0.07268461 0.0126779815 -0.3628628 -0.13273446 0.30071342 0.34637016 -0.2695649 -0.111048
0.23464781 -0.021906748 -0.17425688 0.58321553 0.18412966 -0.42806143 -0.18706407 0.52949256
0.09998947 0.47317797 0.09509264 0.56223434 -0.39272827 -0.023978919 0.14773223 -0.59198964
-0.12463734 -0.32827368 -0.22347963 -0.14118767 0.25514373 0.18138504 0.14506406 0.22522303
0.04735368 -0.06159352 -0.14724086 -0.56915474 -0.30722255 -0.20704287 -0.22402169 0.28211945
0.47361153 0.48827288 -0.71751857 0.07100542 -0.12105506 0.40517032 -0.2520042 -0.6184684
-0.2573546 0.13397709 0.08775438 -0.033135835 0.044817243 -0.38341048 -0.0633199 0.50983614
0.15495501 0.4554001 -0.6114951 -0.112395905 0.2473177 -0.5330585 -0.69849765 -0.6783051
-0.2824329 0.23332939 -0.27701467 -0.44478923 -0.41721022 0.52629334 0.60036874 0.58845115
-0.31022483 0.0746297 -0.41098207 -0.1305921 -0.3802978 0.1290552 -0.23957863 -0.649746
00000000: 84a8 41bd 3e95 cf3e 63f8 ebbd 65d6 e8bd
00000010: 9368 013f cdd3 993d f02d 04bf 0c1f a9be
00000020: 7a9a 7d3e 071e 433e 5e98 a33e f549 87be
00000030: c64e 0cbe 8375 813e 7cd0 bf3e 77fa f53e
00000040: 6bbc 3abe 0615 aabe 6a87 cb3e a371 183f
00000050: dc24 d3bd 346c d33e cd2c 4cbe 3b0b da3e
00000060: d841 40bb a238 e43e 122c c5be d860 64be
00000070: 754b 903e c931 953e ea09 de3e 3b90 013f
00000080: fee5 5b3e 6a5a e33c 2e09 cf3e 41f7 c53e
00000090: a5a8 35be a280 6c3c 807d 3dbe fa5b a23e
000000a0: 46e8 823e 73cf 773e 6f93 1cbe d920 b43e
000000b0: 95fb b8be f54f cabe f33f 0abf e284 2bbe
000000c0: d1a6 81be 3d92 6e3e aa9b 1dbe 7f86 223f
000000d0: fccf 82bd b6c2 c2be 38f7 f73b 09eb b93d
000000e0: 82fe 97bc a739 2abe 0560 afbe ae12 de3e
000000f0: cc3d 8f3e 71c5 8d3e 5e7f 083b 8273 38bd
00000100: 0466 553e baa3 b3be 9595 5d3e c85a 87bd
00000110: 7516 bebe f1f2 10be bced a43d d6a0 833e
00000120: fe27 443c a39d c4be 01bd c03e 237d 123f
00000130: 916e fa3d 8859 90bd cdc1 313f bb13 ce3e
00000140: a139 46be e611 3f3e d74a f1bd b6c4 1f3f
00000150: 161e 113e c4e4 c63e 729f 533f e7b7 d13e
00000160: 1700 44be 4b94 0e3d 78ba 41be aac8 34bf
00000170: 406c a8be b4c3 00bd 6c3e 983d e108 10bf
00000180: 1998 653e 0dac fbbd e339 a2be 9f22 993e
00000190: a92a 11be a4ce 223e 3ccc d9bd 9661 863e
000001a0: 9293 81bd 8d33 02bf 51d3 1f3e 0cb3 b0be
000001b0: c3df f5be fbb2 42be bb9f 493e edf4 c43e
000001c0: 1000 f5b9 086a 2c3e f147 babe 2a20 d2be
000001d0: 3fd9 dabd af4e 29be fa40 06bf 015a 15bf
000001e0: 56be 00be 83cf 5bbe 8556 cc3e 6ab1 d43e
000001f0: 3464 4a3e 783c 3e3e 7fd0 1bbf f6b7 32bf
00000200: 26a6 99be 4505 22bf 4108 2abe 49c7 10bf
00000210: 4862 bbbe 151e 353e aa2d 3fbf 067d 99bc
00000220: 414b 15bd 24c1 2e3e b8bf d4be 8ea0 b2be
00000230: f6bf a83e aefd 92bd 33f9 393e 693e 913e
00000240: 6e2c 63bd 4ae4 d13c bcc6 cdbe 6a6a 06bf
00000250: 31ab 003f 6ebc a4be 011e 1dbf 88b2 79be
00000260: 0696 7fbd 8e9f 043e 059f ecbd d131 8abe
00000270: 2795 7cbe 20fa c2b9 3914 103f b932 963c
00000280: 5dd9 973d a88b fc3e 7b9b 2dbf 2738 ecbc
00000290: 63bb 643e ddee e93e 34cc 1abf 374c 533e
000002a0: 2bc8 d83e 83f3 2bbe d0c9 7d3d 07c5 f3be
000002b0: 0b94 cfbe c669 8a3e a94b 1b3f 5fe6 9e3e
000002c0: abdb 943d 4fb7 4f3c 27c9 b9be 8beb 07be
000002d0: 1cf7 993e 6e57 b13e 6904 8abe 226d e3bd
000002e0: 8447 703e c875 b3bc 6570 32be 9d4d 153f
000002f0: 7c8c 3c3e de2a dbbe b98d 3fbe d38c 073f
00000300: 47c7 cc3d 6244 f23e eebf c23d 97ee 0f3f
00000310: ae13 c9be 706f c4bc 1e47 173e a28c 17bf
00000320: dd41 ffbd 7d13 a8be d8d7 64be 8093 10be
00000330: 33a2 823e 00bd 393e ac8b 143e dea0 663e
00000340: eff5 413d 7d49 7cbd 4fc6 16be 20b4 11bf
00000350: 464c 9dbe 0c03 54be f165 65be f671 903e
00000360: 367d f23e e7fe f93e 4caf 37bf 4a6b 913d
00000370: b7eb f7bd 7c72 cf3e b206 81be f253 1ebf
00000380: fbc3 83be 4a31 093e 92b8 b33d 71b9 07bd
00000390: 4992 373d 614e c4be ddad 81bd 9f84 023f
000003a0: 87ac 1e3e 342a e93e f18a 1cbf d32f e6bd
000003b0: da40 7d3e 8676 08bf bed0 32bf 67a5 2dbf
000003c0: 0c9b 90be e6ed 6e3e ded4 8dbe 6abb e3be
000003d0: 949c d5be 29bb 063f c4b1 193f bca4 163f
000003e0: cad5 9ebe 75d7 983d 3e6c d2be efb9 05be
000003f0: 65b6 c2be 0c27 043e 1a54 75be c155 26bf

linear.0.bias f4 [64]
-0.05063544 0.022512328 -0.5071604 0.31823123 -0.25687516 -0.44772854 0.11483022 0.27479643
0.26219514 0.33349591 0.08015991 0.056015234 0.35591024 0.3548432 0.19019577 -0.5199639
-0.42974693 -0.30130264 0.36707 0.37696558 0.29298544 0.2642965 0.3084008 0.0587108
0.13493744 -0.010599336 0.10310576 0.39469653 -0.4101838 0.020938186 -0.17637633 -0.23329486
0.27413547 0.4720635 0.24141304 -0.21601349 0.50439966 0.53556925 -0.18363678 0.03501335
0.1832913 0.24724048 0.33781862 0.14651616 -0.39542443 -0.52871525 0.44319013 0.44392884
0.198275 0.22409737 0.3862636 -0.3564716 0.07000368 -0.12380465 0.041712463 -0.18726447
-0.4362199 0.09787403 0.08201732 0.19126076 0.3729926 0.2587887 0.09246969 0.3222697
00000000: 1b67 4fbd c66b b83c 44d5 01bf 34ef a23e
00000010: 2485 83be ad3c e5be 1b2c eb3d 1eb2 8c3e
00000020: 713e 863e fabf aa3e e12a a43d 3b70 653d
00000030: de39 b63e 02ae b53e aec2 423e 5b1c 05bf
00000040: ca07 dcbe 5744 9abe 99f0 bb3e a201 c13e
00000050: 3002 963e df51 873e b6e6 9d3e bc7a 703d
00000060: 0a2d 0a3e d6a8 2dbc 1d29 d33d aa15 ca3e
00000070: 9c03 d2be 8f86 ab3c ff9b 34be d9e4 6ebe
00000080: 7c5b 8c3e 4fb2 f13e fb34 773e a432 5dbe
00000090: 5620 013f 111b 093f 480b 3cbe 296a 0f3d
000000a0: b7b0 3b3e 9c2c 7d3e 90f6 ac3e 5508 163e
000000b0: 1275 cabe e259 07bf d1e9 e23e a44a e33e
000000c0: 9a08 4b3e c879 653e 58c4 c53e 7283 b6be
000000d0: 175e 8f3d 4b8d fdbd b0da 2a3d 42c2 3fbe
000000e0: 3758 dfbe 2e72 c83d b2f8 a73d dcd9 433e
000000f0: e3f8 be3e f47f 843e c060 bd3d 8900 a53e

policy.weight f4 [2, 64]
0.06566197 0.20281059 0.14579396 -0.16316134 -0.16659106 0.044656113 -0.05229369 -0.16111219
-0.1878384 -0.05284134 -0.16525096 0.037121773 -0.23587662 0.07936225 -0.05081202 -0.051351964
-0.023048198 -0.09244033 -0.19748998 -0.2409739 -0.10744019 -0.19017251 0.2344558 0.2143672
0.030559724 -0.10307257 0.12781484 -0.1485281 0.15758745 0.10596599 -0.08300359 0.24699832
0.17343575 0.14063402 0.16400293 -0.07474878 0.1833948 0.22782858 0.18927917 -0.07410052
0.066849105 -0.08890765 0.25138003 -0.24621363 -0.033193856 0.0826063 -0.08442708 -0.10839102
-0.11430768 0.11246289 0.101410285 -0.10213067 0.1834648 0.03148309 0.09597722 0.09149598
0.03212447 -0.14001507 0.10159059 0.19919074 0.09271607 -0.20862743 0.014856513 0.24613619
0.03496483 -0.120525725 0.039218668 0.13204992 0.1555467 0.01921361 -0.1635841 0.1613218
0.18544766 0.0961506 0.10420654 -0.12196344 0.18430583 0.016713252 0.023308948 -0.08132195
0.001055279 0.07114292 0.087956816 0.17007975 0.20091186 0.24111345 -0.2255336 -0.035888024
0.011600174 0.05520582 -0.18735123 0.18464653 -0.114317656 -0.21751748 0.26099983 -0.08383089
-0.18396272 -0.0422023 -0.16266192 0.041010693 -0.112410836 -0.02036263 -0.037457474 0.06575467
-0.08735118 -0.0010924761 -0.08216977 0.3343713 0.035750486 0.021089233 0.05891041 0.084131666
0.31644773 -0.121899255 -0.121550016 -0.080597386 -0.15324968 0.12946138 0.07275193 -0.12240189
0.049135756 0.16270064 -0.17193049 -0.39686552 -0.045531757 0.2928225 -0.11665286 -0.26252043
00000000: c879 863d 94ad 4f3e 034b 153e c413 27be
00000010: d996 2abe 54e9 363d e931 56bd 98fa 24be
00000020: b658 40be 2970 58bd 8c37 29be 000d 183d
00000030: a489 71be ad88 a23d 4420 50bd 7056 52bd
00000040: 93cf bcbc 5b51 bdbd d03a 4abe ddc1 76be
00000050: 9a09 dcbd 95bc 42be 2e15 703e 1383 5b3e
00000060: 6358 fa3c b617 d3bd e5e1 023e c017 18be
00000070: 9b5e 213e b204 d93d c9fd a9bd 21ed 7c3e
00000080: 2499 313e 5d02 103e 62f0 273e e315 99bd
00000090: d9cb 3b3e e54b 693e 66d2 413e 03c2 97bd
000000a0: 2fe8 883d 3715 b6bd e2b4 803e 6d1f 7cbe
000000b0: 48f6 07bd 7e2d a93d 1be8 acbd 1cfc ddbd
000000c0: 251a eabd f252 e63d 32b0 cf3d e229 d1bd
000000d0: 32de 3b3e 6af4 003d b48f c43d 3f62 bb3d
000000e0: f394 033d 1c60 0fbe ba0e d03d a8f8 4b3e
000000f0: ece1 bd3d 6ea2 55be bb68 733c 200b 7c3e
00000100: 4837 0f3d 31d6 f6bd c1a3 203d 1838 073e
00000110: a247 1f3e dc65 9d3c 9782 27be 8b31 253e
00000120: fee5 3d3e 9bea c43d 3d6a d53d f8c7 f9bd
00000130: abba 3c3e 3bea 883c 68f2 be3c 1f8c a6bd
00000140: 4a51 8a3a 61b3 913d b422 b43d 6329 2e3e
00000150: d7bb 4d3e 72e6 763e 48f2 66be 52ff 12bd
00000160: a80e 3e3c 7f1f 623d 00d9 3fbe fb13 3d3e
00000170: 601f eabd e7bc 5ebe c5a1 853e 88af abbd
00000180: b960 3cbe 52dc 2cbd d990 26be d4fa 273d
00000190: a737 e6bd 88cf a6bc 026d 19bd 62aa 863d
000001a0: 2de5 b2bd 6a31 8fba a048 a8bd b732 ab3e
000001b0: 1a6f 123d 54c3 ac3c 0b4c 713d 394d ac3d
000001c0: 7005 a23e 51a6 f9bd 37ef f8bd 3e10 a5bd
000001d0: 7ced 1cbe 8691 043e f7fe 943d d8ad fabd
000001e0: 9342 493d ff9a 263e 8c0e 30be f531 cbbe
000001f0: 827f 3abd d5ec 953e b2e7 eebd 1469 86be

policy.bias f4 [2]
0.14377306 -0.08016963
00000000: 3f39 133e fa2f a4bd

value.weight f4 [1, 64]
0.118129686 0.055275172 -0.071190536 -0.039041027 0.012013927 0.12482084 -0.017653123 -0.06328127
0.025208741 -0.024817735 0.10783556 0.032399684 0.06787343 -0.1168506 -0.08071065 0.08740437
0.1128007 -0.064855635 0.040262073 0.10430959 0.0034027249 0.025281265 0.07872914 -0.010972738
-0.11187948 0.05794707 0.117807865 0.040119126 -0.037299797 0.07034376 -0.035106763 0.12091489
0.031168029 0.024050727 0.045812204 -0.05664806 -0.05189626 0.07841416 0.045494214 0.08070232
0.05926898 0.052916065 0.06613378 -0.015861973 0.011546582 -0.0034076124 -0.042724296 -0.007005021
0.06148629 0.11424045 -0.100842 -0.0048606843 -0.055298448 -0.01479505 0.0501958 0.017490804
-0.103835955 -0.042597935 -0.10897541 0.015997678 0.02462256 0.05915843 -0.11016156 -0.071802944
00000000: faed f13d 3868 623d 58cc 91bd 7ce9 1fbd
00000010: 10d6 443c 12a2 ff3d 489d 90bc 9c99 81bd
00000020: 9082 ce3c 904e cbbc e4d8 dc3d 88b5 043d
00000030: 3a01 8b3d 5e4f efbd a04b a5bd 1001 b33d
00000040: 0e04 e73d 08d3 84bd d8e9 243d 44a0 d53d
00000050: 4000 5f3b a81a cf3c be3c a13d 00c7 33bc
00000060: 1221 e5bd e859 6d3d 4045 f13d f453 243d
00000070: acc7 18bd 6410 903d 1ccc 0fbd 3aa2 f73d
00000080: 1854 ff3c 0806 c53c 94a5 3b3d cc07 68bd
00000090: 2c91 54bd 9a97 a03d 2458 3a3d 4247 a53d
000000a0: 08c4 723d 84be 583d 2671 873d f8f0 81bc
000000b0: e02d 3d3c 4052 5fbb acff 2ebd 608a e5bb
000000c0: 0cd9 7b3d e6f6 e93d 4086 cebd 6046 9fbb
000000d0: a080 62bd f066 72bc 1c9a 4d3d e048 8f3c
000000e0: f2a7 d4bd 2c7b 2ebd 802e dfbd 900d 833c
000000f0: 40b5 c93c 1c50 723d 629c e1bd 6c0d 93bd

advantages.weight f4 [2, 64]
0.06617497 0.03498271 -0.026292711 0.114012405 -0.00858821 0.09434794 -0.040584072 -0.047548994
-0.03906788 -0.07134409 -0.12335998 0.062182233 -0.015854046 -0.041263014 0.10367648 0.06037788
0.09611733 -0.033554435 -0.05217901 0.078024045 0.09397513 -0.0886962 0.029160246 0.08774039
0.042923793 -0.059185237 -0.024437338 -0.06871566 -0.044966236 -0.0846923 0.05841233 -0.0038032383
-0.11586718 -0.021729201 -0.092690095 0.11348629 0.05273223 0.06942421 0.03485298 0.026776925
-0.047935933 0.111316994 0.08553612 -0.08173281 -0.052391037 0.11288893 0.10949579 -0.08651969
0.07506403 0.019557536 0.11921246 -0.09900954 0.0763251 0.014341697 0.1023058 -0.083135426
-0.051099762 0.0954964 -0.039088964 -0.08894341 -0.03531505 -0.009894595 -0.10728167 -0.12427288
-0.11068763 0.12107813 -0.11504562 0.09408656 0.08163369 -0.07873666 -0.10243566 0.0053393543
-0.12244788 0.069519654 -0.030777454 0.022517174 0.019190267 0.06779477 0.085373655 0.10629639
0.0003323704 -0.07200448 0.0252724 -0.03289017 0.11461373 0.0018455386 0.06760049 -0.019762143
0.06384669 0.028632194 -0.09668523 -0.11071302 0.05339174 0.0082745105 -0.104950845 -0.08815414
-0.006481126 0.10841298 -0.0639154 0.05891323 0.011663064 0.008323431 -0.03538753 0.09086236
0.077183515 -0.0926916 0.08888754 0.09222233 0.022883758 0.108710304 -0.049047157 0.02151689
0.04830262 0.06482786 0.06078936 -0.097006336 0.072329685 0.03888206 -0.08757432 -0.062487185
0.08077909 -0.047882885 0.039647073 -0.06982438 -0.015923887 0.017741084 -0.02359265 0.02876246
00000000: be86 873d 084a 0f3d d063 d7bc 567f e93d
00000010: 90b5 0cbc 7e39 c13d 7c3b 26bd bcc2 42bd
00000020: a405 20bd da1c 92bd 28a4 fcbd ccb2 7e3d
00000030: 58e0 81bc 6803 29bd 5654 d43d cc4e 773d
00000040: 2ad9 c43d 6070 09bd a8b9 55bd 12cb 9f3d
00000050: 0876 c03d 5aa6 b5bd 78e1 ee3c 3cb1 b33d
00000060: dcd0 2f3d 386c 72bd d030 c8bc ccba 8cbd
00000070: 842e 38bd 2873 adbd c441 6f3d c03f 79bb
00000080: c64b edbd 7001 b2bc 4ed4 bdbd 806b e83d
00000090: c0fd 573d 482e 8e3d 00c2 0e3d 485b db3c
000000a0: 7858 44bd 2afa e33d 902d af3d 8863 a7bd
000000b0: fc97 56bd 5032 e73d 543f e03d 3c31 b1bd
000000c0: 2cbb 993d 2037 a03c aa25 f43d 84c5 cabd
000000d0: 5650 9c3d 70f9 6a3c b485 d13d e842 aabd
000000e0: fc4d 51bd 9e93 c33d c01b 20bd f627 b6bd
000000f0: 84a6 10bd f01c 22bc 7eb6 dbbd c882 febd
00000100: 32b0 e2bd d0f7 f73d 0a9d ebbd 74b0 c03d
00000110: 902f a73d b040 a1bd cac9 d1bd c0f5 ae3b
00000120: f4c5 fabd 5260 8e3d 0021 fcbc f075 b83c
00000130: e834 9d3c fcd7 8a3d 62d8 ae3d ecb1 d93d
00000140: 0042 ae39 1677 93bd 1008 cf3c d8b7 06bd
00000150: 9aba ea3d 00e6 f13a 2072 8a3d 38e4 a1bc
00000160: 0ec2 823d 108e ea3c e802 c6bd 82bd e2bd
00000170: 4cb1 5a3d d091 073c 78f0 d6bd 288a b4bd
00000180: a05f d4bb a007 de3d 14e6 82bd 004f 713d
00000190: 7016 3f3c 005f 083c 84f2 10bd 0c16 ba3d
000001a0: 6412 9e3d 18d5 bdbd ac0a b63d 10df bc3d
000001b0: b876 bb3c 82a3 de3d ace5 48bd 3044 b03c
000001c0: f8d8 453d 78c4 843d 44fe 783d 42ab c6bd
000001d0: 9621 943d cc42 1f3d 2a5a b3bd 90f2 7fbd
000001e0: 826f a53d d820 44bd f864 223d 1600 8fbd
000001f0: d072 82bc c055 913c 6045 c1bc 409f eb3c

advantages.bias f4 [2]
-0.008642018 0.025201783
00000000: 4097 0dbc f873 ce3c
