data/logs/CEM CartePole Example/models/linear-cem-iter13.pt (torch, 5567 bytes, 7 tensors)

linear.0.weight f4 [64, 4]
000000 1a 05 97 bc 0c a1 ef 3e a8 d7 67 3c ea b5 38 bd
       -0.01843505 0.46802557 0.014150538 -0.04509536
000010 9c 50 03 3f c5 d8 2a 3e 97 dc ae be 76 54 65 be
       0.51294875 0.16684254 -0.34152672 -0.223955
000020 12 dc a6 3e af bf 8f 3e e6 76 c7 3e 99 00 93 be
       0.32589775 0.2807593 0.389579 -0.28711393
000030 49 99 01 be 6d e1 fa 3d 08 8b 31 3e c3 73 b0 3e
       -0.1265613 0.12250028 0.17338192 0.3446332
000040 08 6a 19 be 88 49 c0 be 21 c9 83 3e 37 41 05 3f
       -0.14981854 -0.375561 0.25739387 0.52052635
000050 4b ec ce bd 0c 23 d7 3e 7f 20 40 be b7 2f d2 3e
       -0.10103663 0.42018926 -0.18762396 0.4105203
000060 f0 45 2e bd 4b 81 0d 3f a8 ef 57 be f6 6e cd bd
       -0.042547166 0.5527541 -0.21087515 -0.1003093
000070 53 01 a1 3e 56 25 14 3e 23 71 64 3e 61 0b bd 3e
       0.31446323 0.14467368 0.22308783 0.36922744
000080 11 32 51 3e 63 03 bd bd 22 30 6a 3e 32 b8 92 3e
       0.20429255 -0.092291616 0.22869924 0.28656155
000090 76 44 2d be f7 8b 73 bd 82 b1 a6 be 91 23 78 3e
       -0.16920647 -0.059459653 -0.32557303 0.24232318
0000a0 e0 b7 88 3e 4e 32 a3 3d d8 77 b5 be 0a 61 89 3e
       0.26702785 0.07968579 -0.35442996 0.26831847
0000b0 62 3b d1 be 0d 07 b3 be 8b f9 d0 be 5a 2e df bd
       -0.40865618 -0.34966317 -0.40815386 -0.10897513
0000c0 f0 98 7f be 16 5d f6 3d 16 f6 a9 be bc 2a 08 3f
       -0.24960685 0.120294735 -0.3319556 0.5319021
0000d0 d2 06 35 be 28 4b d1 be e4 f3 2e bd 1d 58 13 3d
       -0.17678383 -0.40877652 -0.04271306 0.035972703
0000e0 70 34 86 bc 67 17 93 be 83 4b ee be 3a 74 ca 3e
       -0.016382426 -0.28728792 -0.46541986 0.395418
0000f0 3c 78 a9 3e 46 75 b2 3e 6f 7d 90 3d 26 9c 7c bd
       0.33099544 0.34855098 0.070551746 -0.061672352
000100 01 2d 5e 3e 0a 33 bc be 81 dd 54 3e 9e 66 52 bd
       0.21696855 -0.3675769 0.20787622 -0.051367395
000110 09 0b ab be 63 66 2f be 96 a7 15 3c 18 8b 89 3e
       -0.33406857 -0.17128901 0.009134194 0.26863933
000120 9a 3b b8 3c 63 75 ff be 57 e8 49 3e 9b a2 e9 3e
       0.022489358 -0.49894246 0.19717537 0.4563187
000130 0b 68 f9 3d 3f 92 36 be f9 59 05 3f fc 1e 9b 3e
       0.12178048 -0.17829226 0.5209041 0.30297077
000140 ab 5e 41 be 04 59 61 3d ec 20 a0 be df 11 fd 3e
       -0.18883769 0.055016533 -0.31275117 0.49427697
000150 21 d8 4f 3e 83 a0 8f 3e a6 a8 20 3f 02 02 a0 3e
       0.2029729 0.28052148 0.6275734 0.31251532
000160 a9 77 43 be ed 07 21 3e 20 51 c5 ba fc aa 14 bf
       -0.19088615 0.1572568 -0.0015054084 -0.580734
000170 a2 f5 a9 be 71 09 9c 3d 40 6b 87 3e 12 01 db be
       -0.33195215 0.07618988 0.26449013 -0.42774254
000180 28 79 1e 3e 05 b6 79 be 35 ce eb be ad e2 4a 3e
       0.15475905 -0.24385841 -0.4605576 0.19813032
000190 ee e9 da bd 53 31 ff 3d ea ec fa bd 45 62 89 3e
       -0.1068915 0.1246058 -0.12252219 0.26832786
0001a0 e9 64 aa bd cc 90 d5 be 75 c6 94 3e fa 36 9d be
       -0.08320028 -0.41712034 0.2905766 -0.30706006
0001b0 0b f5 f2 be 8c 6d 8d be a4 37 2c 3d 52 a2 96 3e
       -0.47452578 -0.2762264 0.04204525 0.29420716
0001c0 37 7c e0 bc ed df 22 3e 53 eb ae be cb e2 cc be
       -0.02740298 0.15905733 -0.34163913 -0.4001678
0001d0 db 27 c7 bd d9 31 af bd e7 68 b6 be 70 02 e7 be
       -0.09724399 -0.085544296 -0.3562691 -0.45119047
0001e0 79 f1 df bd de 05 89 be f5 65 85 3e 5b c2 a8 3e
       -0.10934729 -0.2676229 0.2605435 0.3296078
0001f0 01 8e 58 3e 9f ac 5f 3e 16 9b e5 be 4e 63 1a bf
       0.2114792 0.21843193 -0.44844884 -0.60307777
000200 77 1f a3 be f2 33 04 bf bf 3a 10 3d ea c3 da be
       -0.31859943 -0.5164176 0.035212275 -0.42727596
000210 c8 64 ba be 3c 68 87 3e 89 bb 17 bf 22 be 84 3d
       -0.36405015 0.26446712 -0.5927053 0.064815775
000220 10 e3 1d bd 72 6b 92 3e 71 28 73 be 41 eb 63 be
       -0.03854662 0.285976 -0.23745896 -0.22257711
000230 1c ec a7 3e aa 52 eb bd a5 b6 3f 3e 62 b1 9f 3e
       0.32797325 -0.11490376 0.18722017 0.3119002
000240 21 b2 5e bd 1a 98 1d 3e 86 37 57 be 06 43 cb be
       -0.054369096 0.15390053 -0.21017274 -0.39699572
000250 aa 8f 0a 3f 0b 93 43 be 82 f8 db be c6 a8 08 be
       0.54125464 -0.19099061 -0.42963034 -0.13345632
000260 f9 8c 5e bd 96 19 2f 3e b5 5d cc bc ed 98 7b be
       -0.05433366 0.17099604 -0.024947027 -0.24570055
000270 d2 32 80 be 1d 99 f6 bd 00 64 d1 3e 2b cd 4e bd
       -0.25038773 -0.12040923 0.40896606 -0.050488632
000280 7e a1 88 3d 64 72 0f 3f 4e 3b 07 bf 5a f8 8c 3d
       0.06671427 0.5603392 -0.52824867 0.06883307
000290 c9 6f 84 3e 8f 77 d8 3e c3 8d 11 bf 78 18 7d 3e
       0.25866535 0.42278716 -0.56856936 0.24716365
0002a0 c5 5e f8 3e 94 14 ff bc 32 64 72 3e 2a 74 ba be
       0.48509803 -0.031137742 0.23671034 -0.3641675
0002b0 77 21 d0 be f7 4d 13 3e 94 41 ce 3e 75 61 43 3e
       -0.40650532 0.1438521 0.40284407 0.19080146
0002c0 60 68 bb 3d c0 a5 00 3d e0 f1 be be 08 75 1a be
       0.09150767 0.03140807 -0.3729391 -0.15083706
0002d0 2b 26 b2 3e aa 8e ce 3e 3e 26 3a be eb 67 a6 bd
       0.34794745 0.4034322 -0.1817865 -0.081252895
0002e0 c8 45 5f 3e 4c ab 28 be 73 1d bb be 7d 16 e9 3e
       0.21803963 -0.16471595 -0.36545905 0.4552497
0002f0 47 4a 3c 3e a9 c4 06 bf d5 38 b5 be 60 46 d9 3e
       0.1838771 -0.5264383 -0.35394922 0.42436504
000300 53 b4 1a 3e 3e 44 a9 3e 5e 1b ef bd 69 51 e9 3e
       0.1510785 0.33059877 -0.11675142 0.45569924
000310 da 98 cb be aa 6b c0 3d 1e ea ad 3e 91 88 e6 be
       -0.39765054 0.09395535 0.3396768 -0.45026067
000320 0e f9 1b be 5e 54 8b be b2 e6 b2 bd 19 75 99 bd
       -0.15231726 -0.27212805 -0.08735408 -0.07493038
000330 6e c5 80 3e 09 44 38 3e 5a 66 1e 3e 7e 8b 53 3e
       0.25150627 0.17994703 0.15468732 0.20658681
000340 e2 d0 ca 3d 1e c4 bd 3d 68 70 49 3d 97 07 e0 be
       0.099031225 0.09265922 0.049179465 -0.4375579
000350 12 de a4 be 48 89 93 be ac 17 b7 be 68 4e 44 3e
       -0.32200676 -0.28815675 -0.35760248 0.19170535
000360 16 91 f8 3e 6b a9 07 3f 84 51 19 bf 7e 9a 15 3e
       0.48548192 0.52992886 -0.5989001 0.14609715
000370 86 96 f3 bd 30 e1 f1 3e 42 d6 a3 bd 19 17 07 bf
       -0.118939444 0.47242117 -0.07999851 -0.5276962
000380 27 70 95 be e2 39 f4 3d ae 7e fd 3d 54 3c 1e bd
       -0.29187128 0.11925103 0.12377678 -0.038631752
000390 ff d1 30 3d 5e b1 f5 be c7 e2 63 be f8 62 ce 3e
       0.043169018 -0.47986883 -0.22254477 0.40309882
0003a0 c4 24 24 3e ac da 0a 3f e9 fb ea be b2 a6 9c bc
       0.1602965 0.54239917 -0.45895317 -0.019122455
0003b0 a4 e0 8b 3e fb a7 cb be eb f2 fd be 28 d9 17 bf
       0.27319825 -0.39776596 -0.49599394 -0.5931573
0003c0 4d 1a 8f be 09 b0 b6 3e 16 0a 1d be dd 2d ce be
       -0.27949753 0.3568118 -0.15335879 -0.40269366
0003d0 db 04 c8 be 29 d4 d5 3e 3d 9a c4 3e fd 21 ed 3e
       -0.39066204 0.41763428 0.38398924 0.46314994
0003e0 c7 ab 9d be 76 ff 46 3e f5 5f 97 be c5 ba b5 bd
       -0.30795118 0.19433388 -0.29565397 -0.08873514
0003f0 cd e6 c2 be 7f 3f 79 3e 9f 0f 6b bd 56 f6 06 bf
       -0.38066712 0.24340628 -0.057387944 -0.5271963

linear.0.bias f4 [64]
000000 e2 a6 40 bc ae 6a 27 bd d4 fc dd be 95 25 a8 3e
       -0.011758538 -0.040873222 -0.43356955 0.32841173
000010 8f 9e 8a be 67 00 e0 be d6 88 24 3e 8f ca 83 3e
       -0.27074096 -0.43750307 0.16067824 0.25740477
000020 ac 11 8d 3e 4f 78 b2 3e 1a 85 7d 3c 7e ce de b9
       0.27552545 0.34857413 0.015473628 -0.00042496988
000030 e5 7e ba 3e b9 71 bf 3e b4 9b 54 3e 00 d0 e8 be
       0.36424938 0.3739145 0.20762521 -0.4547119
000040 88 79 d2 be 93 fa 98 be b6 e9 be 3e 9b 74 c6 3e
       -0.41108346 -0.29878673 0.37287682 0.38760838
000050 f0 24 9a 3e 0f 9d 6b 3e 82 b2 93 3e 25 e7 c2 3c
       0.30106306 0.23009132 0.28847128 0.023791859
000060 d9 c3 30 3e 27 1c 28 bd 4c 88 66 3d d5 55 d1 3e
       0.1726221 -0.041042473 0.056282327 0.40885797
000070 1a 25 d2 be a6 b1 04 be 12 dc 37 be 98 eb a3 be
       -0.4104393 -0.12958393 -0.17955044 -0.3201568
000080 6e 43 7a 3e 79 1e f1 3e 93 77 71 3e a6 5f 42 be
       0.24439785 0.4709356 0.2358077 -0.189818
000090 6a 69 00 3f 34 93 06 3f df 67 34 be d7 43 1d 3d
       0.5016085 0.52568364 -0.17617749 0.038394775
0000a0 57 5c 64 3e 06 b2 8d 3e d1 2c a4 3e 7f 85 a9 3d
       0.2230085 0.27674884 0.32065442 0.082774155
0000b0 b4 27 c1 be f2 f3 f5 be ba 02 ea 3e a6 d3 ea 3e
       -0.37725604 -0.48037678 0.45705205 0.458646
0000c0 78 22 0e 3e 57 a2 5e 3e 7c 22 c0 3e e5 c4 ba be
       0.13880336 0.21741615 0.3752631 -0.36478344
0000d0 51 95 5a 3c e0 29 77 bd 18 74 b4 3d 1e 4f 7b be
       0.013341264 -0.06034267 0.088112056 -0.245419
0000e0 73 5f cd be ec fe e3 3d 38 1e d2 3d bd e9 2e 3d
       -0.40111884 0.11132607 0.1025967 0.04270338
0000f0 cb a9 c8 3e c7 4f 51 3e 71 a5 f4 3d aa e1 9c 3e
       0.39192042 0.20440589 0.11945618 0.30640918

policy.weight f4 [2, 64]
000000 de bd 18 3e e4 09 20 3e 1a 5e 1b 3e dc 9a af bd
       0.14916179 0.15628773 0.15172616 -0.08574459
000010 d0 8e 01 be da 7c 52 3d 59 7c c8 bc 5d 80 92 bd
       -0.12652135 0.0513886 -0.024473356 -0.071533896
000020 19 cc 0e be 6c 70 67 bd 65 c8 c0 bd c6 a3 c1 bc
       -0.13945045 -0.0565037 -0.09413222 -0.023637664
000030 71 50 32 be 8b 3f 11 3d 0f 47 4d bd e4 ed 97 bc
       -0.17413498 0.03546099 -0.050116595 -0.018546052
000040 86 aa d9 bb bb 2c 3a bd f3 28 3e be f9 5a 4a be
       -0.0066426424 -0.045452815 -0.18570308 -0.19761266
000050 4f c0 44 bd d6 ca 97 bd 01 80 38 3e bb 20 34 3e
       -0.048034962 -0.07411735 0.1801758 0.1759061
000060 f7 42 8a bc 6b 1c 50 bd 74 c0 df 3c a8 4d 10 be
       -0.016877634 -0.05080835 0.027313448 -0.14092124
000070 f6 7c 17 3e 17 be 7f 3c 35 6c 2c bd c2 c2 4d 3e
       0.14793763 0.015609286 -0.04209538 0.20093825
000080 de ee a2 3d 1b 06 12 3e ba 69 14 3e 9b 61 32 bd
       0.079557166 0.14260142 0.14493456 -0.043550115
000090 29 27 11 3e 01 59 2f 3e 2c a3 3d 3e e0 79 3a bd
       0.14175095 0.17123796 0.18519276 -0.045526385
0000a0 b9 81 db 3d 29 bf d0 bc 5d eb 53 3e a7 46 d3 bd
       0.10718102 -0.025481777 0.20695253 -0.1031621
0000b0 34 ee 2b bd 5a 7d f4 3d 03 ff 90 bd d8 d0 06 be
       -0.041975215 0.119379714 -0.070798896 -0.13165605
0000c0 2a 5d 9c 3b a9 55 a2 3d 41 a1 7b 3d 01 e5 9e bd
       0.004771848 0.07926495 0.06143308 -0.07758523
0000d0 09 ed e1 3d 9c a7 f2 ba 0a a8 18 3e 70 b5 9e 3d
       0.11031539 -0.0018513086 0.14907852 0.0774945
0000e0 a3 a5 b0 3d 93 9a 25 be b0 3e 03 3e 91 c4 07 3d
       0.08625343 -0.16172247 0.12816882 0.033146445
0000f0 29 8d 8b 3d f7 7c 80 bd a4 d2 fb bb 52 ea 52 3e
       0.068140335 -0.06273835 -0.0076850224 0.20597199
000100 a5 cc 46 bd d2 8e 97 bd 6a 57 08 3d 0b c7 5f 3d
       -0.048535008 -0.07400288 0.03328649 0.05463318
000110 31 7f ec 3d a0 7d 4c 3c 88 ff 43 be 44 ee 92 3d
       0.11547697 0.012481123 -0.19140446 0.07174352
000120 61 59 0c 3e be 6a cc 3d 14 87 07 3d 09 b1 7a bd
       0.1370597 0.09981297 0.033087805 -0.06120399
000130 f2 02 fb 3d ef 46 78 3d 00 40 b9 3c de bb e9 bd
       0.12256421 0.060614523 0.022613525 -0.11412786
000140 b8 7f 7b bc 8c e1 c5 3c f8 fe 9b 3d 80 c2 01 3e
       -0.015350275 0.0241554 0.07616991 0.12671852
000150 1e e7 10 3e 48 0f 00 3e 1c 5d 2f be 58 a1 28 3b
       0.14150664 0.1250583 -0.17125362 0.0025730934
000160 5a d1 71 3d e4 c7 40 3b 52 de b1 bd e4 49 35 3e
       0.059037544 0.002941602 -0.08684982 0.17703968
000170 13 5c d6 bd 71 36 02 be b3 5f 61 3e 9b b5 1a bd
       -0.104667805 -0.1271608 0.22009163 -0.03777085
000180 07 7e b8 bd 4f eb 34 bd 31 0a 13 be b1 c2 20 3c
       -0.09008413 -0.04416972 -0.14359356 0.009812043
000190 41 ee 90 bd d4 63 14 3d 1b b0 08 bd 9c 4a 18 3d
       -0.07076693 0.036228016 -0.033371072 0.037180528
0001a0 5b bf 02 be 31 22 84 bd a8 97 1a bd 52 e9 43 3e
       -0.12768309 -0.06451834 -0.037742287 0.19131973
0001b0 08 67 36 3d 25 7c 80 bc da 79 39 3d ca f2 db 3d
       0.044531852 -0.015684197 0.045282222 0.10739668
0001c0 e7 1a 4a 3e 08 a9 b5 bd a6 0f a7 bd 1d 55 d7 bd
       0.19736825 -0.08870131 -0.081572816 -0.10514281
0001d0 9b 0b a4 bd f0 b3 26 3e 5b fa a0 3c 09 01 de bd
       -0.08010026 0.16279578 0.019650629 -0.10840041
0001e0 1a 9e a3 bb 76 d5 3c 3e de 45 4b be 68 5c 6c be
       -0.0049932124 0.18440804 -0.19850871 -0.23082125
0001f0 f8 ab ab bc b5 75 16 3e 73 bd c0 bd 5c b1 63 be
       -0.020956025 0.14693339 -0.094111346 -0.22235626

policy.bias f4 [2]
000000 0b 61 0a 3e 8f 7f 92 bd
       0.13513581 -0.07153236

value.weight f4 [1, 64]
000000 fa ed f1 3d 38 68 62 3d 58 cc 91 bd 7c e9 1f bd
       0.118129686 0.055275172 -0.071190536 -0.039041027
000010 10 d6 44 3c 12 a2 ff 3d 48 9d 90 bc 9c 99 81 bd
       0.012013927 0.12482084 -0.017653123 -0.06328127
000020 90 82 ce 3c 90 4e cb bc e4 d8 dc 3d 88 b5 04 3d
       0.025208741 -0.024817735 0.10783556 0.032399684
000030 3a 01 8b 3d 5e 4f ef bd a0 4b a5 bd 10 01 b3 3d
       0.06787343 -0.1168506 -0.08071065 0.08740437
000040 0e 04 e7 3d 08 d3 84 bd d8 e9 24 3d 44 a0 d5 3d
       0.1128007 -0.064855635 0.040262073 0.10430959
000050 40 00 5f 3b a8 1a cf 3c be 3c a1 3d 00 c7 33 bc
       0.0034027249 0.025281265 0.07872914 -0.010972738
000060 12 21 e5 bd e8 59 6d 3d 40 45 f1 3d f4 53 24 3d
       -0.11187948 0.05794707 0.117807865 0.040119126
000070 ac c7 18 bd 64 10 90 3d 1c cc 0f bd 3a a2 f7 3d
       -0.037299797 0.07034376 -0.035106763 0.12091489
000080 18 54 ff 3c 08 06 c5 3c 94 a5 3b 3d cc 07 68 bd
       0.031168029 0.024050727 0.045812204 -0.05664806
000090 2c 91 54 bd 9a 97 a0 3d 24 58 3a 3d 42 47 a5 3d
       -0.05189626 0.07841416 0.045494214 0.08070232
0000a0 08 c4 72 3d 84 be 58 3d 26 71 87 3d f8 f0 81 bc
       0.05926898 0.052916065 0.06613378 -0.015861973
0000b0 e0 2d 3d 3c 40 52 5f bb ac ff 2e bd 60 8a e5 bb
       0.011546582 -0.0034076124 -0.042724296 -0.007005021
0000c0 0c d9 7b 3d e6 f6 e9 3d 40 86 ce bd 60 46 9f bb
       0.06148629 0.11424045 -0.100842 -0.0048606843
0000d0 a0 80 62 bd f0 66 72 bc 1c 9a 4d 3d e0 48 8f 3c
       -0.055298448 -0.01479505 0.0501958 0.017490804
0000e0 f2 a7 d4 bd 2c 7b 2e bd 80 2e df bd 90 0d 83 3c
       -0.103835955 -0.042597935 -0.10897541 0.015997678
0000f0 40 b5 c9 3c 1c 50 72 3d 62 9c e1 bd 6c 0d 93 bd
       0.02462256 0.05915843 -0.11016156 -0.071802944

advantages.weight f4 [2, 64]
000000 be 86 87 3d 08 4a 0f 3d d0 63 d7 bc 56 7f e9 3d
       0.06617497 0.03498271 -0.026292711 0.114012405
000010 90 b5 0c bc 7e 39 c1 3d 7c 3b 26 bd bc c2 42 bd
       -0.00858821 0.09434794 -0.040584072 -0.047548994
000020 a4 05 20 bd da 1c 92 bd 28 a4 fc bd cc b2 7e 3d
       -0.03906788 -0.07134409 -0.12335998 0.062182233
000030 58 e0 81 bc 68 03 29 bd 56 54 d4 3d cc 4e 77 3d
       -0.015854046 -0.041263014 0.10367648 0.06037788
000040 2a d9 c4 3d 60 70 09 bd a8 b9 55 bd 12 cb 9f 3d
       0.09611733 -0.033554435 -0.05217901 0.078024045
000050 08 76 c0 3d 5a a6 b5 bd 78 e1 ee 3c 3c b1 b3 3d
       0.09397513 -0.0886962 0.029160246 0.08774039
000060 dc d0 2f 3d 38 6c 72 bd d0 30 c8 bc cc ba 8c bd
       0.042923793 -0.059185237 -0.024437338 -0.06871566
000070 84 2e 38 bd 28 73 ad bd c4 41 6f 3d c0 3f 79 bb
       -0.044966236 -0.0846923 0.05841233 -0.0038032383
000080 c6 4b ed bd 70 01 b2 bc 4e d4 bd bd 80 6b e8 3d
       -0.11586718 -0.021729201 -0.092690095 0.11348629
000090 c0 fd 57 3d 48 2e 8e 3d 00 c2 0e 3d 48 5b db 3c
       0.05273223 0.06942421 0.03485298 0.026776925
0000a0 78 58 44 bd 2a fa e3 3d 90 2d af 3d 88 63 a7 bd
       -0.047935933 0.111316994 0.08553612 -0.08173281
0000b0 fc 97 56 bd 50 32 e7 3d 54 3f e0 3d 3c 31 b1 bd
       -0.052391037 0.11288893 0.10949579 -0.08651969
0000c0 2c bb 99 3d 20 37 a0 3c aa 25 f4 3d 84 c5 ca bd
       0.07506403 0.019557536 0.11921246 -0.09900954
0000d0 56 50 9c 3d 70 f9 6a 3c b4 85 d1 3d e8 42 aa bd
       0.0763251 0.014341697 0.1023058 -0.083135426
0000e0 fc 4d 51 bd 9e 93 c3 3d c0 1b 20 bd f6 27 b6 bd
       -0.051099762 0.0954964 -0.039088964 -0.08894341
0000f0 84 a6 10 bd f0 1c 22 bc 7e b6 db bd c8 82 fe bd
       -0.03531505 -0.009894595 -0.10728167 -0.12427288
000100 32 b0 e2 bd d0 f7 f7 3d 0a 9d eb bd 74 b0 c0 3d
       -0.11068763 0.12107813 -0.11504562 0.09408656
000110 90 2f a7 3d b0 40 a1 bd ca c9 d1 bd c0 f5 ae 3b
       0.08163369 -0.07873666 -0.10243566 0.0053393543
000120 f4 c5 fa bd 52 60 8e 3d 00 21 fc bc f0 75 b8 3c
       -0.12244788 0.069519654 -0.030777454 0.022517174
000130 e8 34 9d 3c fc d7 8a 3d 62 d8 ae 3d ec b1 d9 3d
       0.019190267 0.06779477 0.085373655 0.10629639
000140 00 42 ae 39 16 77 93 bd 10 08 cf 3c d8 b7 06 bd
       0.0003323704 -0.07200448 0.0252724 -0.03289017
000150 9a ba ea 3d 00 e6 f1 3a 20 72 8a 3d 38 e4 a1 bc
       0.11461373 0.0018455386 0.06760049 -0.019762143
000160 0e c2 82 3d 10 8e ea 3c e8 02 c6 bd 82 bd e2 bd
       0.06384669 0.028632194 -0.09668523 -0.11071302
000170 4c b1 5a 3d d0 91 07 3c 78 f0 d6 bd 28 8a b4 bd
       0.05339174 0.0082745105 -0.104950845 -0.08815414
000180 a0 5f d4 bb a0 07 de 3d 14 e6 82 bd 00 4f 71 3d
       -0.006481126 0.10841298 -0.0639154 0.05891323
000190 70 16 3f 3c 00 5f 08 3c 84 f2 10 bd 0c 16 ba 3d
       0.011663064 0.008323431 -0.03538753 0.09086236
0001a0 64 12 9e 3d 18 d5 bd bd ac 0a b6 3d 10 df bc 3d
       0.077183515 -0.0926916 0.08888754 0.09222233
0001b0 b8 76 bb 3c 82 a3 de 3d ac e5 48 bd 30 44 b0 3c
       0.022883758 0.108710304 -0.049047157 0.02151689
0001c0 f8 d8 45 3d 78 c4 84 3d 44 fe 78 3d 42 ab c6 bd
       0.04830262 0.06482786 0.06078936 -0.097006336
0001d0 96 21 94 3d cc 42 1f 3d 2a 5a b3 bd 90 f2 7f bd
       0.072329685 0.03888206 -0.08757432 -0.062487185
0001e0 82 6f a5 3d d8 20 44 bd f8 64 22 3d 16 00 8f bd
       0.08077909 -0.047882885 0.039647073 -0.06982438
0001f0 d0 72 82 bc c0 55 91 3c 60 45 c1 bc 40 9f eb 3c
       -0.015923887 0.017741084 -0.02359265 0.02876246

advantages.bias f4 [2]
000000 40 97 0d bc f8 73 ce 3c
       -0.008642018 0.025201783
